multitask_model.pth (torch, 277253 bytes, 15 tensors)

en_conv1.weight f4 [6, 1, 5, 5]
00000000: 1ab5 89bd 3e07 1fbd e354 4abe 28fe 89be
00000010: b6d8 13be b635 60bd ac71 313a abef 8cbe
00000020: 2b81 d3be 9600 6dbe 3236 763e c23a 233d
00000030: 5d68 24be b3ff 79be 4850 fbbd c47b c8bb
00000040: 3927 ebbd 28fe 153f 6015 afbd 801f 843e
00000050: 1789 813d 144d 383f f186 84be 98b8 ea3e
00000060: 9ffc 193e 8482 d6bd feb2 0abd 824d dd3d
00000070: 7483 e0bd 5d32 5039 fcb9 babd a6c2 e0bd
00000080: 2216 b63e a4c0 4b3e e32e 7fbe 323c 1a3d
00000090: 620b 01be ddbc 08bf 9e0d 413f 9988 81be
000000a0: ee12 193d 9a11 943e 2c49 6b3e f88e afb8
000000b0: 09f3 2ebe f5a0 12be 7f7f b9bd eee9 18be
000000c0: a491 753d 7508 b93d 7765 2abe 28a2 2e3e
000000d0: 32dc 41bd 7151 c4bd 78cb 25be b2d5 ab3d
000000e0: cb6e a03d 5da9 8a3e 677a 4c3f 847d 7e3d
000000f0: cc14 1fbe ceaa 8c3e 60f2 00be 64c6 58be
00000100: e138 8c3e a81a aabe 9106 b4be 9144 8bbe
00000110: 69d3 1d3d adc0 85bc aa2a b0be 5cea b1be
00000120: c252 69be dc66 02be 89fe babc 9608 4c3d
00000130: a8a0 80bd 013a 04bd f607 65bd e96a 5fbd
00000140: 32f7 2abe 823c dd3e 68df 88be a486 003f
00000150: 562a 59be ca91 e1bc ec84 883e 5848 ecbd
00000160: e613 f7be 60ee b2be 31d9 a9bd 4b9a b6be
00000170: c824 cf3e f2da 113f 2e4f adbd 4533 e0bd
00000180: 4fcd 26be 1f3b 0cbc 1806 bebd d45c dabd
00000190: fa4a 38be 3907 47be 5620 70bd 19a5 3ebe
000001a0: c3da 87bd b19b 93be 51d2 c8bd 3fe1 1f3e
000001b0: cdc9 5e3e 7ac3 093e 63a0 2dbe 3bf2 91bd
000001c0: cd6c 1ebe 9606 9c3e 8141 d53e d415 bf3c
000001d0: 75bd 2abe 14be c53d 54bb 863e f7d0 3fbd
000001e0: 159d c3bd f612 6e3e 2b27 273e 2a9b 8dbd
000001f0: 78de 8c3e db9b 26bc 657e 69bd 2b11 053f
00000200: 78b9 a33c dc63 cb3e ac64 6d3e a2ce 063f
00000210: 3db7 7cbe fa38 763e 6294 843d 3408 b9bd
00000220: f798 b53e 4c1b be3d e241 cebd ec33 8abd
00000230: b2b7 663d ad4e 663c 435c a0be cb37 21bf
00000240: 9375 f4be b1a5 0d3c 5cb4 38be adf8 fabe
00000250: 243d 2bbf ff4f b7be
-0.067239955 -0.038825266 -0.19758944 -0.26951718 -0.14438137 -0.054738723 0.00067689526 -0.27526602
-0.41309485 -0.23144755 0.24044111 0.039850958 -0.16055436 -0.24413948 -0.12271172 -0.0061182696
-0.114820905 0.58590937 -0.08548999 0.25805283 0.06324976 0.7199261 -0.25884202 0.4584396
0.15037774 -0.10474113 -0.033862107 0.10805799 -0.10962573 0.00019855188 -0.09117505 -0.10974626
0.3556376 0.19897705 -0.2492023 0.037655063 -0.12601998 -0.5341318 0.75411403 -0.25299528
0.03737157 0.2891968 0.22977132 -8.37128e-05 -0.17084898 -0.14319213 -0.09057521 -0.14932987
0.059953347 0.09034816 -0.16640268 0.17054045 -0.047329135 -0.09585846 -0.16190898 0.083903685
0.07833632 0.2708234 0.7987427 0.06213142 -0.15535277 0.27474064 -0.12592459 -0.2116943
0.27387145 -0.33223462 -0.3516126 -0.2720075 0.038531695 -0.016327227 -0.3440755 -0.34749115
-0.22785476 -0.1273455 -0.02282645 0.049812876 -0.06280643 -0.03228188 -0.055915795 -0.054545317
-0.1669586 0.43210226 -0.26732945 0.50205445 -0.21207556 -0.027535338 0.2666391 -0.11537236
-0.4825737 -0.3494749 -0.08293379 -0.3566459 0.4045775 0.5697471 -0.08462368 -0.10947279
-0.16289257 -0.008559017 -0.09278506 -0.10662237 -0.17997351 -0.19436349 -0.058624588 -0.18617667
-0.06633522 -0.2882972 -0.0980574 0.15613268 0.21756668 0.13453475 -0.16955714 -0.0712628
-0.15471192 0.30473775 0.41651538 0.023325838 -0.16673835 0.09655395 0.26314795 -0.046830144
-0.095514454 0.2324942 0.16323535 -0.06914361 0.2751348 -0.010168995 -0.057005305 0.5197932
0.0199859 0.39724624 0.23182935 0.52659047 -0.24679275 0.24045172 0.06473614 -0.09034768
0.35468265 0.0928255 -0.1007116 -0.067481846 0.05632753 0.014056844 -0.3132039 -0.6297576
-0.47745952 0.008645461 -0.18037552 -0.4901785 -0.6689017 -0.3580322

en_conv1.bias f4 [6]
00000000: 87a3 3e3d f35d b7bb abaf 1fbd 24b9 ae3c
00000010: 2c25 73be fd23 c53d
0.04654267 -0.0055959164 -0.03898589 0.021328516 -0.23744649 0.09626005

en_conv2.weight f4 [16, 6, 5, 5]
00000000: da70 32bd 7cf9 cb3d bd0c 0f3d ad43 573d
00000010: b6c4 debd 6ea6 a13e c066 513e b422 d4bd
00000020: 1e28 45be 2bce 6dbe c9e6 91be 23cb 99be
00000030: 72f1 abbe 66fa 9abe 4a4c 37be a0ac acbb
00000040: 9a62 2bbe 6a20 f9be 55f5 41be ed03 d1bd
00000050: 7ae7 4b3e a7a8 6abb 5333 83be 4820 08be
00000060: ca0b 17be 5ad2 47be da98 0cbe 92f6 1a3e
00000070: 33ba 143d c447 5f3d a37d 823d d868 583e
00000080: 8264 4d3e 7df6 ba3c d17d 4d3c bf1b ca3d
00000090: cac7 b23d 0fb4 ba3d 6e31 58be 56cc a5be
000000a0: 217c 78be 7ccf b4be 7423 91be a50e 37be
000000b0: c2b0 75bd 4bf2 19bd a21c 5fbe 5b99 2a3d
000000c0: 4f21 743d c36d 04bd 05f4 923e 24a9 303e
000000d0: 1220 c3be 12c0 a4be 3d56 4dbd f31f 013c
000000e0: c84e 93bd 2fa8 843d 502d 853c 48d5 1f3c
000000f0: 8a63 123c e10a 723e a139 bd3d 5a3d 39bd
00000100: 6987 bbbd ea79 813d d901 31bc 2a5f adbd
00000110: fc81 bcbe f56f 97be 0a2f debe 1d89 cfbe
00000120: 4561 1e3c fe1d 983d 2434 3a3e 387c a3bd
00000130: 7527 d1bd 8bf4 1cbe a4c2 813d 413f 3b3d
00000140: 8529 3c3d e11d 1b3e 8aca d43e b5d9 153d
00000150: ccac 083d 96d7 fc3d 0772 5a3e e453 c43d
00000160: 1590 76bd ae2c f2be 3a17 fdbc 19af ebbe
00000170: b44d 5fbe f826 40be 3bb6 aabe c81d 29be
00000180: 4fd7 cbbe be5a d3bc fd7a 7c3e 82b6 cebb
00000190: 9e8c f5bd d4f3 2e3e c767 083e a3bf 7e3d
000001a0: a7c2 95be cbe9 1d3e 240a 743e f514 863e
000001b0: 0e23 9abb 33a3 26be 8b35 09bd 9092 fcbc
000001c0: 9150 a73a b9ef b9be a8d8 1f3d 6780 a2be
000001d0: eb73 e1be 9b01 2bbe 6fa0 d33a 88e1 513e
000001e0: c0da 143d b2ad 93be b65f 933c 2ddf 703d
000001f0: 44c4 e1bc 0716 d1bd ffd0 3cbe 2325 1abe
00000200: 5465 a9bc e716 1c3e 7ba7 e9be 0db4 14be
00000210: e351 d73a 91c2 913e 75af b13c 6388 053e
00000220: d605 803e 6ed3 5b3e db02 283e 6282 66be
00000230: e005 af3d 760e bf3d c56d 65be 88c8 86be
00000240: aec3 75be cec0 2bbe f3ec bdbd 225a e8be
00000250: 4217 b23d a95e 693d fdba 653e d328 5b3c
00000260: 553c 7fbe 18a2 9ebd 8344 8b3d 8f09 9ebe
00000270: 3d0b cebc 0707 fb3d 39f0 363e 2d7e b53d
00000280: 4d7e 97bf b9a3 3ebf b0ad 45bd eb54 8a3d
00000290: bfed 01bf d5c0 1ebd 564c 04be 00d2 d4bd
000002a0: 9a8d 8ebe 6527 8fbe c3b0 9b3e 19fe a43e
000002b0: d345 b03e 403d 843e 5881 713e 80d8 3e3e
000002c0: 37ba 4dbd 3bdf 753d c4e2 08be 5e27 9cbc
000002d0: f382 963d dad8 413e 06fe 873d e846 ee3b
000002e0: bf42 143e dc6f 9fbe 1bae 0f3c b206 a3bc
000002f0: 0181 563d 1679 a13d cd81 4dbf 0f67 7bbf
00000300: 0cbe 17bf df07 0abf 805e 0dbf 534a 16be
00000310: 5503 32be e02a a6be 05a4 8abd d192 17bc
00000320: 0e34 a43d b112 5e3e c1dd 093e 0539 0cbe
00000330: bf8c 1fbe d1c4 703e d54f 4ebc 3871 c6bd
00000340: cc44 293d 93e1 e53c c03b 993e 43ab 4b3e
00000350: 6d39 103e 6c85 5d3e 2166 503e 7bca d4be
00000360: 70fb 52be 4128 443e 35d6 823d ec24 a5bd
00000370: 770d 27bf 3ba3 2ebf 71b9 47bf 6141 0abf
00000380: 5314 8cbe 53fa ab3d 917e d3bd 101e 363d
00000390: c887 1a3c 8f6f 1e3c 8c00 303e f7fa 173e
000003a0: a53f dd3d f4c9 473d 2a0f 793e 9b7d 0ebd
000003b0: 5b47 b83d 4a3c c13e d584 2d3e 7a74 a43c
000003c0: ccc2 18bf 5deb 71bf dc6b 5ebf 007d aabe
000003d0: 969d e0be d4c6 a0be f707 90bd 13f0 2dbe
000003e0: 16cb 2bbe 7e89 93bd ba71 193e ce34 88bd
000003f0: 27b2 15be 7e42 f0bd 7bcf 173e 9b9b 67bb
-0.043564655 0.09959695 0.034924258 0.052554775 -0.108773634 0.31572288 0.20449352 -0.103581816
-0.19253585 -0.23223178 -0.28496388 -0.30037794 -0.33582646 -0.30269164 -0.17900196 -0.005269602
-0.16736832 -0.48657542 -0.18941243 -0.10205827 0.1991252 -0.003580609 -0.25625095 -0.13293564
-0.14750591 -0.19513837 -0.13730183 0.15133122 0.036310386 0.0545118 0.063716196 0.21133745
0.20057872 0.022822613 0.012542204 0.098685734 0.08729513 0.09116375 -0.21112606 -0.32382458
-0.24266101 -0.35314548 -0.2834736 -0.1787668 -0.059983023 -0.037584584 -0.21788266 0.041650157
0.059602078 -0.03233124 0.28701797 0.17252022 -0.38110405 -0.32177788 -0.05013107 0.007881152
-0.07192761 0.06477391 0.016256958 0.00975544 0.008934865 0.23636962 0.092395075 -0.045224525
-0.09156687 0.063220814 -0.010803663 -0.08465417 -0.3681792 -0.29577604 -0.43395263 -0.40534297
0.009666746 0.074275956 0.18183953 -0.07982677 -0.10212604 -0.1532766 0.06335953 0.04571462
0.045938034 0.15148117 0.41560775 0.036584575 0.033367917 0.12345807 0.2133256 0.09586313
-0.060196 -0.47299713 -0.030894864 -0.46032026 -0.21806985 -0.18764865 -0.33342156 -0.16515267
-0.39812705 -0.025800105 0.24656291 -0.0063083777 -0.11989711 0.170852 0.13320838 0.062194478
-0.2925007 0.15421216 0.23831993 0.26187864 -0.004703886 -0.16273193 -0.03349833 -0.030831605
0.00127651 -0.36315706 0.03902498 -0.31738588 -0.4403375 -0.16699831 0.0016145835 0.2049619
0.03634143 -0.28843457 0.017989974 0.058806587 -0.027559407 -0.102092795 -0.184391 -0.15053229
-0.0206782 0.15243112 -0.4563559 -0.14521809 0.0016427602 0.28468755 0.02169011 0.13040309
0.25004452 0.21467373 0.1640734 -0.22510675 0.085460424 0.0932893 -0.22405155 -0.26324868
-0.24000427 -0.16772768 -0.0927371 -0.45381266 0.08695842 0.05697504 0.22434612 0.0133764325
-0.24925359 -0.07745761 0.06800177 -0.30866668 -0.025151843 0.122572 0.17865075 0.08861957
-1.1835419 -0.7446857 -0.048261344 0.06754478 -0.50753397 -0.038758118 -0.12919745 -0.10391617
-0.27842408 -0.27959743 0.30408296 0.3222511 0.34428272 0.2582798 0.23584497 0.18637276
-0.050226416 0.060027342 -0.13367754 -0.01906174 0.07349195 0.18930379 0.06640248 0.0072716363
0.14478587 -0.3114003 0.008769537 -0.019900654 0.05236912 0.078844234 -0.80276185 -0.9820413
-0.59274364 -0.5391826 -0.5522232 -0.1467679 -0.17384084 -0.32454586 -0.067695655 -0.009251312
0.08017741 0.21686818 0.13463499 -0.13693626 -0.15581034 0.2351258 -0.012592276 -0.096895635
0.041325375 0.028061664 0.29928398 0.1988955 0.14084406 0.21632928 0.20351459 -0.4156073
-0.20603728 0.1915598 0.06388513 -0.08063683 -0.6525492 -0.6821782 -0.78017336 -0.5400601
-0.27359256 0.08397355 -0.10326875 0.044462264 0.009431787 0.009670152 0.17187709 0.14841829
0.10803155 0.048776582 0.24322191 -0.034787755 0.08997985 0.3774131 0.16945203 0.020075072
-0.59672236 -0.9449976 -0.8688333 -0.33298492 -0.4387023 -0.31401694 -0.07032769 -0.16986112
-0.1677669 -0.07203959 0.1498479 -0.06650697 -0.14618741 -0.117314324 0.14825241 -0.003534055

en_conv2.bias f4 [16]
00000000: bce3 283d e5b5 a43d da07 cabc 32ae d0bd
00000010: 083f 27be f8d4 8dbd bba7 fbbd 66f4 453d
00000020: 19c4 d0bd 06f1 0cbd 2cd6 113e daee 9cbb
00000030: a802 fdbc 7e5c 1bbd 7f5d c2be a4ff c0bd
0.04123281 0.08042506 -0.024661947 -0.10189475 -0.16332638 -0.06925386 -0.122878514 0.04832878
-0.10193653 -0.034409545 0.14241856 -0.0047892155 -0.030885056 -0.037930004 -0.37961957 -0.094237596

de_convt1.weight f4 [16, 8, 7, 7]
00000000: 7fda 003c 7515 0f3b ea89 f8bc 5c9e b5bc
00000010: 9e0b 1abd 56c2 3b3c 154d 4f3c 7531 26bd
00000020: 7ad1 1fbc 0e85 1cbd 3c5d 09bd fcb0 9d3c
00000030: bd50 d53b c82f d8bc a078 4ebd 5958 8fbc
00000040: 0ad2 a8bb ee5d 25bc b8a1 c4bc 8514 f6bc
00000050: f037 47bd 9239 f3bc ae16 c6bc 8155 1cbd
00000060: 15ee 29bd ef54 46bd 967c 5ebd e287 413c
00000070: b14c bf3c 470a d73b 61b0 33bd 1d58 9c3c
00000080: faa8 0d3d 9454 423c 3ebd d1bb c043 a53c
00000090: 40ee 4bbd 8876 c53b 823f 493c bfe9 73bd
000000a0: 1f31 11bd 466b 3fbd 3ce1 ed3b dae2 96bc
000000b0: 4323 8e3c b166 47bd 5f30 d83c cd1f 4d3c
000000c0: df85 0dbd 8bcd 9fbc 7802 c73c c38a 77bd
000000d0: 6877 d7bc 92ef 2dbd d789 e03c d0e1 383d
000000e0: 9428 16bd dda8 dcbc 531c 593b 738f 38bd
000000f0: f3e4 d73c ab08 56bd 130e 34bc d38c b9bb
00000100: d0da 053d c8bd 143a 7918 00bd 7de0 af3c
00000110: 77e7 a73b 19b4 1fbc 1c66 0abc d077 3bbd
00000120: feef 9abc 6962 03bd d9a4 fdbc e49e f4bc
00000130: 6c1c 4a3d 82df efbb f589 3c3c ec3a 2f3d
00000140: a44e 0c3b c9ff 67bd bb56 10bc 9dd9 793c
00000150: 84f6 26bd 0f17 013c 12f9 3bbc 3fef 36bd
00000160: 435a 1e3d 4f0e e53a 7462 90bc 0e0e 26bd
00000170: 9014 373c b275 c13c 4308 d83c da9a b23c
00000180: b810 23bb eafe 69bd 9757 f23d 3539 333d
00000190: 7b15 b63d 3757 ee3d c12c c03c ba2a 013e
000001a0: ac08 7b3d 7dc2 7d3d 2a94 433d 4adf 5a3d
000001b0: 2fe7 b63d 46fb 3f3d 95db dd3d 4bd6 193d
000001c0: b756 923d 5ec9 713d 6e9a 2f3d 6787 3b3d
000001d0: f264 8c3d 0fb7 a53d 3d4f 023e 207c 013e
000001e0: 0883 3a3d b690 3c3d 4137 003e 4f43 d13d
000001f0: a413 433d dc77 ae3d e7c9 f93d de5f fb3d
00000200: 9d8d d03d 074b 6c3d 462f ad3d 4199 9c3d
00000210: 4951 803d 9a5a ea3d fadc 573d 9abf 783d
00000220: 4515 9d3d fc14 d83d a85c 9f3d de79 ce3d
00000230: 72e7 c83d 45d2 473d cfc1 f03c 77a0 2c3d
00000240: 1a93 953d 74ab d93d 432b 923d 6d3f 7b3e
00000250: 4f88 df3d dd48 883d 1517 1d3d 79b4 c83d
00000260: 6fbd 043e 6769 e03c 9442 6f3e 7917 ae3d
00000270: eb2b 3b3d ad1d 053e f9e4 ce3d 739d 023e
00000280: f007 183d 5d0d fb3d 2655 8a3d 6ebd 3e3d
00000290: 8f68 d33d 4cce 053d 0b9a cd3d 8fdb 7b3e
000002a0: 670c b83d f514 fd3c 6242 783e aec0 463d
000002b0: 52d3 cc3d c74c 523e fb42 0b3d 923c da3d
000002c0: 09ef ca3d 22fe 093e 74f3 253e 3695 c53d
000002d0: bab2 fc3d eeda d93d 1072 9c3d 190e 913d
000002e0: e17d 353d 100d c23d dcf2 243e b193 fe3c
000002f0: 46ec a63d c440 cd3d e60d bc3d 23a0 d93d
00000300: 8f62 d03d 3694 923d 9627 9a3e 2beb 333e
00000310: 82da 8f3d 3a66 e43d d686 8b3d bf76 be3d
00000320: 1092 853d d8d7 023e 5ed9 b73d c3e0 fd3d
00000330: 0fb6 6a3d 2046 b03d 506c de3d 9f7c a53d
00000340: 154c 033e c19c bf3d 1306 ea3d 7f5e 5e3d
00000350: f985 053e 1522 c33d caea dd3d 01e8 e43d
00000360: 8152 0f3d 4e59 ef3d 1a86 ef3c 54d4 973d
00000370: 6cbb ab3d c683 443d f878 2a3d 70eb 3d3d
00000380: 16c3 423d ee3c 743d 4f8a 703d 0aac 0d3e
00000390: 0e79 193d cff9 c83d b008 d33d 3e71 c73d
000003a0: 756a b73d e92b 843d 7560 783d 6b3a 273d
000003b0: 448a 6b3d 4151 173d 7a3c 273d d338 ee3d
000003c0: 3f47 c03d b147 dc3d 7816 9d3d cfe4 d93d
000003d0: e8a0 163d dc45 b6bb 1151 d9bb bf5c 86bc
000003e0: 201b 1d3d 86bf 453d 4782 8e3c 0de8 5c3c
000003f0: 81e4 03b8 f224 70bc ece2 9fbc b3a7 f53b
0.0078645935 0.0021832858 -0.0303392 -0.022170238 -0.037608735 0.0114599075 0.012652655 -0.04057451
-0.009754533 -0.03821283 -0.03353618 0.019249432 0.006509869 -0.026389971 -0.050408006 -0.017498182
-0.0051519917 -0.010093195 -0.024002895 -0.030039081 -0.04863733 -0.029690538 -0.024180736 -0.03816748
-0.04148682 -0.048420843 -0.054318033 0.011812182 0.023351999 0.0065625045 -0.04386938 0.019084984
0.034584977 0.011860985 -0.0064007333 0.020173907 -0.04978776 0.006026093 0.012283208 -0.05954909
-0.035447236 -0.046733163 0.007259516 -0.018418718 0.017350798 -0.04868192 0.026390253 0.012519789
-0.034551498 -0.01950719 0.02429317 -0.060435068 -0.026302055 -0.0424648 0.027409477 0.045137227
-0.036659792 -0.026935989 0.0033128455 -0.04505868 0.026354289 -0.05225436 -0.010989684 -0.0056625395
0.03267938 0.00056740316 -0.03127334 0.021469349 0.0051240283 -0.0097475285 -0.008447196 -0.04576856
-0.018913265 -0.032076273 -0.030962395 -0.029860921 0.04934351 -0.0073203454 0.011507501 0.0427808
0.0021409178 -0.05664042 -0.008809741 0.015249637 -0.04076244 0.007879033 -0.011472957 -0.044661757
0.0386603 0.0017475578 -0.017625071 -0.040540747 0.011174336 0.023615692 0.026371127 0.021802355
-0.0024881791 -0.05712787 0.11833113 0.04375573 0.08890816 0.11637729 0.02345884 0.12613955
0.061287567 0.061953057 0.047748722 0.0534356 0.089308135 0.046870492 0.108328976 0.03755788
0.07145446 0.05902993 0.042871885 0.045783427 0.06855191 0.08091556 0.1272554 0.12645006
0.045535117 0.046036445 0.12521078 0.10217916 0.047626153 0.08518955 0.12196713 0.122741446
0.101832606 0.05768874 0.08456282 0.07646418 0.06265504 0.11443062 0.052700974 0.0607296
0.076700725 0.105508775 0.07781345 0.10081838 0.0980977 0.048784513 0.02938929 0.04214522
0.07303448 0.10628405 0.07137158 0.24535914 0.10914671 0.066545226 0.03835209 0.098000474
0.12962888 0.02739401 0.23365241 0.08500571 0.04569618 0.12999602 0.10102267 0.12755375
0.037116945 0.12258408 0.06754522 0.046567373 0.10322677 0.032667443 0.10039147 0.24595474
0.089867406 0.030893782 0.24244073 0.048523597 0.10001244 0.205371 0.033999424 0.10656084
0.099088736 0.1347585 0.16206151 0.096476 0.12338777 0.10637461 0.07638943 0.07082767
0.0443095 0.09475148 0.16108268 0.031076284 0.08150534 0.10022119 0.091823384 0.10626247
0.101750486 0.07157175 0.30108327 0.17570178 0.07024099 0.11152311 0.06812827 0.09299993
0.06522 0.1277765 0.089770064 0.123963855 0.05730253 0.08607125 0.10860503 0.0808041
0.12821992 0.0935607 0.1142694 0.054289337 0.13039388 0.09527985 0.10835798 0.11177064
0.03499079 0.116869554 0.02923875 0.07413545 0.08385357 0.04797723 0.04161927 0.04636711
0.04754933 0.05962842 0.05872565 0.13835159 0.037468962 0.09813272 0.103043914 0.09738396
0.08955852 0.06453688 0.060638864 0.040827196 0.057504907 0.036942724 0.04082916 0.11631932
0.09388589 0.107558616 0.07670301 0.10639345 0.036774546 -0.005562527 -0.0066319783 -0.016401647
0.038355947 0.048278354 0.017396105 0.01348306 -3.1445645e-05 -0.014657246 -0.019517384 0.007496798

de_convt1.bias f4 [8]
00000000: 9f44 01bd 8f5a 98bd 9a4e 143e 7a0a 833d
00000010: 189d c53d f497 19bd 5e3d 963d 4f63 0a3f
-0.031559583 -0.07439148 0.14483109 0.063984826 0.09649104 -0.03749843 0.073359236 0.5405778

de_convt2.weight f4 [8, 4, 1, 1]
00000000: 8dde 6abe 2c1f dabe 3478 ec3e 936f e93e
00000010: 3415 0c3c e9fb f1bd b8d9 b1be 55c1 91bd
00000020: 481d c23e 3e24 6c3d 6e63 cfbe e51b 853e
00000030: c9f7 573d 3716 ef3e 88d9 f7bd b4e2 2d3e
00000040: c9a4 da3e 6ec6 0d3f 8099 e8bd 54ef 493e
00000050: c9fa 5c3e a352 48be f0ed b43e 4626 693c
00000060: ea13 143f 1a7c f43e e048 1f3e ba20 ac3e
00000070: 93a8 133f 75b8 013e 203b 43be 8aa7 8a3f
-0.22936459 -0.42601907 0.46185458 0.45592937 0.008549977 -0.11815626 -0.3473642 -0.07116953
0.37912965 0.05765175 -0.40505546 0.25997844 0.05272654 0.46696636 -0.12102038 0.16981012
0.42703846 0.55380905 -0.11357403 0.19720203 0.21580042 -0.19562773 0.35337782 0.0142303165
0.57842886 0.47750932 0.15555143 0.33618718 0.576791 0.12668021 -0.19065523 1.0832379

de_convt2.bias f4 [4]
00000000: 7263 113f 9ac6 c03d b003 c6be 4358 4a3f
0.56792367 0.0941288 -0.38674688 0.79040927

out.weight f4 [1, 4, 4, 4]
00000000: 606d 10be ba18 5b3c 9e17 96bc 7ee1 63bd
00000010: 4452 133c 9e31 eebd eae3 f5bd f2b3 17be
00000020: 73bf 2abe 4a73 25bd 4b09 18be 5970 9fbd
00000030: 04fe abbd e9de c8bd 7a64 ef3c 7bac 4dbd
00000040: 045d 58be 1c66 bc3c e160 20bd 631b 56be
00000050: 484e 95bd 4f42 58be 9f35 45be b0e4 0cbe
00000060: feb8 cebc ce73 2dbc 30db 6d3b bed8 d9bd
00000070: a15e 99bd 07d4 2fbe 3fc4 41be d888 acbd
00000080: 1c60 ac3d 10b8 48bd d0dc 35bd d85f e6bd
00000090: 2e75 cf3d d87c 62bd 70a4 cdbc 082b d03d
000000a0: 9488 3abd ee04 85bd b4ca 343d c08b ee3c
000000b0: 34c5 de3d f01e 00bc b479 8e3d 6c47 223d
000000c0: 1ef7 62bf 368a 33bf a1e2 75bf 60b6 73bf
000000d0: 4e00 59bf d9dd 62bf c710 74bf 6ed8 56bf
000000e0: e420 88bf eaaa 1fbf 39d8 3fbf ea20 4fbf
000000f0: add8 85bf 6bee 40bf 68ab 53bf 1c31 6cbf
-0.14104223 0.0133725945 -0.018321808 -0.055634968 0.008991782 -0.116305575 -0.12006362 -0.14814737
-0.16674595 -0.04039315 -0.14847295 -0.077851005 -0.08398059 -0.09808142 0.029222716 -0.05021332
-0.21129233 0.022997908 -0.03915489 -0.20908885 -0.072903216 -0.21119045 -0.19258736 -0.13759112
-0.025234696 -0.010586692 0.0036293976 -0.106370434 -0.07488752 -0.17170726 -0.18922518 -0.084245384
0.08416769 -0.04900366 -0.044400036 -0.112487495 0.10129772 -0.05529484 -0.025102824 0.101644576
-0.045540407 -0.06495081 0.044138625 0.029119372 0.10877457 -0.007819876 0.06956807 0.039618894
-0.8865832 -0.7013277 -0.96048933 -0.9520016 -0.8476609 -0.8861976 -0.953381 -0.83923995
-1.0635037 -0.6237017 -0.74939305 -0.809096 -1.0456749 -0.75363797 -0.8268342 -0.92262435

fc1.weight f4 [120, 400]
00000000: 3e71 f23e 9d71 253e 2ba1 16bb df27 343c
00000010: 4d64 c2be 436e bc3e d664 a8bd 7394 ce3d
00000020: 6d10 38be 40e3 0abd a072 093f 00d1 633e
00000030: 4a1e a5bc 5bcf e53d a78d 24bc 81f8 eebd
00000040: 9f31 563d 29e4 fc3d 52aa 76bd 8c1a 063e
00000050: d883 753d 79c9 01bd a933 2e3e 076b dd3d
00000060: 99be d53d 3f22 703e 4671 493e 07b0 f03c
00000070: 7e86 d5bd e991 b6be 0104 af3e 64c5 5f3e
00000080: dd5b 213d baf6 a8bd f1c8 d1be 2457 bb3e
00000090: 095c 1e3e df43 5dbe 05fe 41bc 5b36 393e
000000a0: 2ac3 fcbd 2b0f 253e d42f d1bc 0555 423e
000000b0: 7c8d a73d 5ab7 b6bd c5bb 0abd e0b6 133a
000000c0: 99d9 f3bc a0db 2f3e e79b dcbd 461f 623d
000000d0: d9ec 143e ab06 b03c a4ad 0bbf a2b5 5e3e
000000e0: cd9e 8a3d 6c05 aebc 7907 a93e ff2d 613e
000000f0: e09f 31be 730c 703d ae2d 0d3e 53b8 9b3d
00000100: 6a2f 653e d5a1 a9bc 82ae 16bc c9ba ba3d
00000110: fe51 503d 7667 a73e f043 203e 3995 fb3d
00000120: 3639 f73d 7e45 e23d 58b2 123e 8a9c 233e
00000130: 86ec 63be 328e 51be 90ed 45bd f0cb ae3d
00000140: 8fab 0a3e 08f7 4fbe 7aa1 efbc 8d12 3d3d
00000150: 11b9 583d 15c5 61bd ac82 76bd be97 2fbc
00000160: 6108 9bbe 4367 2d3d 4023 10be 0dfc 6cbe
00000170: 5610 ecbd edc6 91be 9f19 1bbb 891e 673d
00000180: 7e4c 1cbd 314b 6cbd 9688 81be e697 6cbc
00000190: fe17 303e a587 e5bd 51dd 523d 2e49 e63d
000001a0: 6caf 423e 5846 85bb 9e58 2ebe f6f9 00bc
000001b0: 44ac 773e 6463 833d d416 f7be 529d 89be
000001c0: cada cb3d 5aa2 7abd a8fa dabe a48c 35be
000001d0: 0d17 db3c 518c d73d 6b2c b6bd 2bfc 9abe
000001e0: d074 87bd 0d32 50bc 78d4 05bd bcfd 2fbe
000001f0: 5adf d53d 2c79 8d3e 5726 0f3e 9bbe 683e
00000200: ecbd 193d 5b7d 5cbe 2148 debe c309 a8bd
00000210: 77a4 1bbd c99d 4abd 9efb 47bd fae5 a0be
00000220: 41e8 76be 9a8e 26be 855f 3bbe 0dfd 5bbe
00000230: 7115 a4be 7a63 d3be c014 833d f6d2 793e
00000240: dfea 1e3c 9c21 cf3c 4869 283c 38ac bebd
00000250: e84d 083e 8179 963e 49d9 643e fceb c2bd
00000260: 1b95 b23c 9443 9dbd 0b51 bcbb ee8a 69be
00000270: 8e20 a9be 307e b5bd d5a2 8fbc d09a 6fbe
00000280: a65d ecbe 9648 57be ac89 eb3d 2bdb bd3c
00000290: 566c 36be f968 49be 97f5 56bc e4ff eb3e
000002a0: 141f 393e 077b 4c3e 7463 c73c 6fc9 493d
000002b0: b065 763d 43de 4a3b 0cea 46be 1a8b 92bc
000002c0: 9795 173c 6f25 ee3d 7efa 2bbe cb24 f7bd
000002d0: ab01 62be 0e6b d3bd 77dd 9e3d 1d47 d0bd
000002e0: c73e 40be ea1e bfbd a1b7 9bbd 148e 1d3e
000002f0: b653 a6bc 208a 9bbc 2d98 03bc ce81 a33d
00000300: 278e 5abd 8da0 163d 6152 183e ba7d 623d
00000310: b7e5 083e 2ab3 6ebc 8671 96be a937 3cbe
00000320: 04af a43d 8468 413e 3ab2 083e a155 153c
00000330: a84b 9e3c 755b b8be 2f18 7ebe 4186 9cbe
00000340: e997 a3bd add5 1abe ab44 4fbc f42c 53bd
00000350: 5455 813c 1814 023e 7352 583d 3341 07bd
00000360: 8c2f dbbc 7bae 503e 0bf0 6c3e e252 913e
00000370: ca3a 683e c876 a63c d644 24bd 22e8 46bd
00000380: f34f df3d 49b4 a4be 13c6 f63c 796d 823d
00000390: 32aa ecbd d25d bebd 13ad 36be f1ef 333e
000003a0: fe2b 6b3e ea2a 00be 9fec 70be 6ebc fe3d
000003b0: 2065 d13e 8585 63bd 9752 17be d14d 8bbd
000003c0: 1f12 153e 6df3 133e 8920 153d b880 08bc
000003d0: 7891 eb3d 318c f9bc 145a 603e d8ea 303c
000003e0: ae35 36be 813a eebc 8a94 77bd 6882 19bc
000003f0: 65cb 3a3e 70be 1f3d 3941 cd3d 5b0a 513d
0.47352022 0.16156621 -0.0022984247 0.010995834 -0.37967148 0.36802873 -0.08222358 0.10086908
-0.17975016 -0.03390813 0.5369053 0.22247696 -0.020156045 0.112211905 -0.010043538 -0.11668492
0.052293416 0.123482056 -0.060221024 0.13096064 0.05994019 -0.03168628 0.17011894 0.108114295
0.10436744 0.23450564 0.19672117 0.029380811 -0.10426043 -0.35658196 0.34182742 0.21852642
0.03939425 -0.08250184 -0.4097362 0.3658992 0.15464796 -0.21607922 -0.011840348 0.18087141
-0.12341912 0.16119067 -0.025535502 0.18977745 0.08181283 -0.0892169 -0.033870477 0.00056348555
-0.029766845 0.17173624 -0.107719235 0.055205606 0.14543475 0.021487555 -0.5456183 0.21748975
0.0676857 -0.02124282 0.33013514 0.21990202 -0.17346144 0.058605623 0.13786957 0.076035164
0.22381368 -0.02070705 -0.009196879 0.09117658 0.050859444 0.32696122 0.15650916 0.12284321
0.12071459 0.11048411 0.14325845 0.15977684 -0.22258195 -0.204644 -0.04832226 0.08534992
0.13542007 -0.20309079 -0.029251803 0.04616027 0.052910868 -0.055119593 -0.060183212 -0.0107173305
-0.3027983 0.042334806 -0.14075947 -0.23143025 -0.11526553 -0.2847208 -0.0023666394 0.056425605
-0.038158886 -0.057688896 -0.2529952 -0.014440512 0.17196652 -0.11207513 0.051480595 0.11244427
0.1901223 -0.0040672235 -0.17025992 -0.007872095 0.24186808 0.06415442 -0.48259604 -0.26877838
0.0995384 -0.061189987 -0.4276936 -0.17729431 0.02674439 0.1052481 -0.08895191 -0.30270514
-0.06614077 -0.012707246 -0.03267333 -0.17186636 0.104429916 0.2763151 0.13979469 0.2272896
0.03753464 -0.21532194 -0.43414405 -0.08204987 -0.037998643 -0.049466882 -0.048823945 -0.31425458
-0.24112035 -0.16265336 -0.18298157 -0.2148325 -0.32047608 -0.41286832 0.06400442 0.24396881
0.009699552 0.02528458 0.010279007 -0.09310192 0.13310969 0.29389575 0.22348513 -0.09517667
0.021799615 -0.07678905 -0.0057469658 -0.22806904 -0.3303265 -0.08861959 -0.017533699 -0.233989
-0.46165198 -0.21023783 0.11500868 0.023175796 -0.17814764 -0.1966895 -0.013120077 0.46093667
0.18078262 0.19968806 0.024339415 0.049264368 0.06015557 0.0030955232 -0.1942522 -0.017888594
0.009251974 0.11628234 -0.16794774 -0.120675646 -0.22070949 -0.103231534 0.07757085 -0.10169814
-0.18773948 -0.09332068 -0.07603384 0.1538623 -0.020303588 -0.018986762 -0.008031887 0.07983743
-0.053358223 0.036774207 0.14875175 0.055295683 0.1336888 -0.014569083 -0.29383487 -0.18380608
0.08041194 0.18887526 0.13349238 0.009114654 0.019323185 -0.36007276 -0.24813913 -0.30571178
-0.07987959 -0.15120573 -0.012650649 -0.051556543 0.015787758 0.12702978 0.052813005 -0.033021163
-0.02675607 0.20379059 0.23138444 0.28383547 0.22678676 0.020320311 -0.04010471 -0.048561223
0.10903921 -0.32168797 0.030123746 0.063685365 -0.115559 -0.092952386 -0.1783946 0.17571999
0.22966 -0.1251637 -0.23527764 0.12438284 0.40897465 -0.055547256 -0.147776 -0.06801952
0.14557694 0.14448328 0.03640798 -0.00833147 0.11502355 -0.030462356 0.21909362 0.010798179
-0.17793915 -0.029080631 -0.060444392 -0.00936947 0.18241651 0.038999975 0.10022206 0.051035266

fc1.bias f4 [120]
00000000: 857c 9bbd 6728 ed3c 4d28 0d3e 3875 5dbd
00000010: 86f9 6bbd a28f 213c 92c0 39be 111c e23b
00000020: f350 f3ba 5f73 86bd 3fce f5bc f0b8 a83c
00000030: 3f97 86bd aac4 8c3d c95c b6bd 8e42 ebbd
00000040: bcfb 833d 2ac5 0bbd 24f0 fb3d ec08 a3bd
00000050: 0762 2ebd 8ed5 303c 752d 02bd 052a d9bd
00000060: 0845 26bd 6ee6 a1bd edb4 57bc 7dad ca3b
00000070: 0bb2 6ebd 0eb4 783e 936d 78bd bfec 50bd
00000080: 5037 97bd f541 9d3c 39a0 1cbd 48cc ecba
00000090: 2aad 103d 05dd 3f3e 67ee e73d 1406 5cbc
000000a0: e15b 1ebd b17d 16bd 1c31 fa3c 27bb ddbc
000000b0: 41b0 b53c bb46 7abd 7fbe 483b 2f7f e2bd
000000c0: 4e3f 9fbc df11 983c 5ecc 393e e791 18bd
000000d0: 89fd 6fbd dd73 1cbe a353 2bba fb2a ba3d
000000e0: 5bfe 943d 6740 3dbd 404a afbd 329a 0dbe
000000f0: adcc eebc 1996 90bd 93c2 b2bd 06cc 9b3d
00000100: 166f 28bd 3043 d03c 658e fd39 2bcb 953d
00000110: f7e6 71bd cd1e a1bc b712 e23b 66b5 b3bc
00000120: b4d9 0ebe a79b 56bd 75b0 2abe d52a ebbd
00000130: ef1a 86bd ad86 e33d 68b9 88bc 7925 23bd
00000140: 31bd 81bd b7a5 da3d d37f 0cbe 3e81 71be
00000150: 9d62 57bc 2d90 59bd 16f6 cfbd f3f4 94bc
00000160: 7f79 03be c9da 103c b1b2 47bc 012f c13c
00000170: 9512 f9bd 723b 86bd bc57 103d 6621 c7bc
00000180: 281f 58bb a02d 4ebd 7917 8d3d 6bb6 0f3e
00000190: 6d57 edbd 572e 19bc 45b0 85bd b3ad 703d
000001a0: 9d9a 4fbd b954 c23d ae60 e23c c1b7 d7bd
000001b0: 0aa5 353e 5ab8 d43b d7dd 6e3c bab6 26bd
000001c0: c338 433d 012f e23c d0e4 233e 1de6 e4bc
000001d0: 830f ccbd e590 e6bd ac09 babc 547a 6fbd
-0.075921096 0.02894993 0.13784905 -0.054066867 -0.05761101 0.009860905 -0.18139866 0.0069003184
-0.0018563553 -0.06564974 -0.030005572 0.020595998 -0.06571817 0.06873448 -0.08904416 -0.11487304
0.06444499 -0.034123577 0.123016626 -0.07960686 -0.042573955 0.010793103 -0.031781632 -0.10603718
-0.040593177 -0.07905279 -0.013165695 0.006185232 -0.058275264 0.24287435 -0.060651373 -0.05100703
-0.07383597 0.01919649 -0.038238738 -0.0018066252 0.035321392 0.18736656 0.113247685 -0.0134291835
-0.03866184 -0.036740962 0.030540995 -0.02706678 0.022178771 -0.06110261 0.0030631123 -0.110594146
-0.019439366 0.01856321 0.18144366 -0.03724852 -0.0585914 -0.15278573 -0.0006535595 0.09090229
0.07275077 -0.046203997 -0.08559084 -0.13828352 -0.029150331 -0.07059879 -0.08728518 0.07607274
-0.041121565 0.025422662 0.00048362013 0.07314142 -0.059058156 -0.019668007 0.0068992036 -0.021937083
-0.13950235 -0.052394535 -0.16668876 -0.11482779 -0.06548106 0.11109672 -0.016689971 -0.03983066
-0.063349135 0.10676139 -0.13720636 -0.23584458 -0.01314607 -0.053116012 -0.10154359 -0.018183207
-0.12839316 0.008841225 -0.012188599 0.023581984 -0.12161747 -0.06554307 0.03523992 -0.024307918
-0.0032977555 -0.05033648 0.06889243 0.1403443 -0.11588941 -0.009349427 -0.06527761 0.058759402
-0.05068456 0.09488816 0.027633991 -0.10533095 0.17738739 0.006491703 0.014579258 -0.040701605
0.047661554 0.027610304 0.16005254 -0.027941758 -0.09963896 -0.11258105 -0.02270969 -0.05846627

fc2.weight f4 [84, 120]
00000000: 1436 58be bebb 8cbd 431a 6d3b e7b9 6b3d
00000010: aa08 94bd d9df bf3d bbb0 9fbe b37a 5cbd
00000020: d35b 33be 778c 4e3d 1e46 a23c e035 3a3c
00000030: ad5b 6a3d d231 c3bc f837 84bd 9d9b 11bd
00000040: 43b1 6dbc f19a 45be 3a9d 093e 4f41 723d
00000050: 150a db3d 1dff 8dbd c8a0 fbbc 4e06 d73d
00000060: 1e76 013c 385b 0c3e 304c a63d 1f97 493d
00000070: 615d 97be 00e9 f13d 1b23 3d3d 8bef 0abd
00000080: 89db 47be 74c4 8f3d 6222 1dbe 6a7c ffbd
00000090: ef89 623d 3833 333e 64db 193e 9828 b13d
000000a0: fa71 423d 4119 853e 8fc5 a23c bc85 903d
000000b0: fc47 15bc c8d0 c4be 2106 f6bc a0f8 58be
000000c0: a385 b1bd fafc ed3d 844c 1ebc 8cee 263c
000000d0: 229f 0abe 075f 173b cccd 543d 3394 8d3b
000000e0: b572 72bc 2b76 353d 638b 83be 3b94 1c3e
000000f0: 4844 cabd 24d8 a2bc 5bb8 acbd 9d0f 2b3e
00000100: 2216 e0bc 3d63 ff3c e800 8d3c c65d 0bbd
00000110: 20da 1abe 6333 863c 3078 5d3e 7a63 f63c
00000120: 4279 77be 6ea4 103d 6ba9 9cbe ec97 ec3d
00000130: 7b24 63bd 8bd2 9a3e c86b 88bc bde8 febc
00000140: 5460 e2bc 75e0 933d f41c 2bbe 4b36 98bd
00000150: 306f d5be cb85 873d c184 83be f2e9 ed3c
00000160: 2016 213d 94b3 e8bc 5024 5bbd 3e75 143c
00000170: 793b 083e 5bd5 2fbe f727 d1be abd7 1dbd
00000180: d5cc 913d c7e5 c7bd d85f 9d3e 2d3d 093e
00000190: 3d55 b03c 4623 92bc ff1c 8abc 68ba 8ebe
000001a0: 09e9 08bc 92f8 4e3e 4bc2 e2bd f161 f7bd
000001b0: fdb0 23be 6ac3 cf3d 473d 923c 110c 84be
000001c0: 551c 06be 0671 44bd 8d2b fb3d b374 b03d
000001d0: e0fb acbe 1d41 c53e d9be 003d d1e8 383c
000001e0: 4e51 0e3e 1be7 5a3d 311f 123e 7af3 6fbd
000001f0: 5fe1 5f3d 5554 2e3e cf3c f13d 8168 d03c
00000200: a61e 3e3e 13d7 96be 1922 7ebd 5a00 af3d
00000210: 9812 d2bd 16cf 8d3e 12f2 f73c 0423 363e
00000220: 9a5c 6e3e 54a6 a93e 222c d5bd 40bd cc3c
00000230: 9fdb 343d ff80 f5bc 4de4 a2bd 9820 ef3d
00000240: 4599 a5bd 0715 243e 8c11 1dbe 6d21 74bd
00000250: f6e6 173e 35d3 40be b926 4a3e a448 b4bc
00000260: 58bc 34bd cbba 52be 154d 91bd 03b1 b6bd
00000270: bf89 6cbc b9d6 ccbe 71a0 10be 2b19 9dbd
00000280: b090 813d 4444 0b3e 9951 de3c 3644 da3c
00000290: 56d6 66be be43 313d d58e a83d 74a8 093e
000002a0: ce22 a7bd d26f 883e fcee 22bd b128 52bd
000002b0: 8d2c a33d ea5d 2a3e 7d74 b0be 0f4f 9f3e
000002c0: d078 67bd c66b eebc 3ca2 a83e 3b8b 1b3e
000002d0: d9ab 1d3e 951f c53b 79ac b73d b6b8 903e
000002e0: 2c49 203d 582b 95be 22c3 18be 35e1 453e
000002f0: 5e81 783e 35de a33c cf6e 49bd adb0 d1bd
00000300: dc87 9a3d 97fe aabc 5374 35be 903c 803c
00000310: aba0 90bd 188b 87be 1364 3dbd ca0c 053d
00000320: e8b0 093d 9553 d63d 9a8e 09be 452b 8ebd
00000330: bc79 623d 5c34 1fbd 58f6 583e 4a90 0b3b
00000340: fc38 903d 964d 3dbe 8bf3 753d 5555 853b
00000350: c336 d03d fe74 bdbe 4612 4d3e baa7 71be
00000360: 2d87 623d b6d6 db3b 6a20 5abb 20bf ecbd
00000370: 18d9 473d 2760 a23d b7e4 0fbd 6576 123e
00000380: 5860 1cbd 9bfa 59bc 8bec 603d 173d c4bd
00000390: f47a 28be e242 4b3e c5dd 8cbe 2424 cb3d
000003a0: 2730 b1bd 2a4c 8b3d 3879 d03d de7c 7bbe
000003b0: 6eb7 6d3e 7cda bb3c d8e8 78bd 21a8 013c
000003c0: b200 6e3d 7d2d 97bc 2150 153e 587d 3f3d
000003d0: 0176 74bd 5c35 03be bc45 b9bd eb28 ddbb
000003e0: a0b5 bbbc f4bf 68be 0bbd 86bd a8dd 613d
000003f0: 5fa9 a53e 7475 d8bd fb0c b23d 8516 143c
-0.21114379 -0.068717465 0.0036178983 0.057550337 -0.07228215 0.093688674 -0.31189522 -0.053827953
-0.17515497 0.050426926 0.019808825 0.011365384 0.057216335 -0.023827467 -0.06455988 -0.035548795
-0.0145075945 -0.19297387 0.13438883 0.059144314 0.10695282 -0.069334246 -0.030716315 0.104992494
0.0079016965 0.13706672 0.0812 0.049216386 -0.2956343 0.11812019 0.046176057 -0.033919852
-0.1951734 0.07019892 -0.15345147 -0.12474902 0.055307325 0.17500007 0.15025097 0.08650321
0.047471978 0.2599583 0.019869594 0.07056758 -0.009111401 -0.38440537 -0.03003222 -0.21188593
-0.08668067 0.11620517 -0.009661797 0.01018871 -0.13537267 0.0023097412 0.051954076 0.0043206452
-0.014797856 0.044302147 -0.2569228 0.1529092 -0.09876305 -0.019878455 -0.084336005 0.16705175
-0.027354304 0.03117525 0.017212346 -0.034024976 -0.1512227 0.016381925 0.21627879 0.030076731
-0.2416735 0.035313062 -0.30598006 0.11552414 -0.055454712 0.30238757 -0.016652957 -0.031116838
-0.027633823 0.07220546 -0.16710263 -0.074322306 -0.41686392 0.06617316 -0.2568722 0.029042218
0.03932774 -0.028405942 -0.053501427 0.009061156 0.13303937 -0.17171232 -0.40850803 -0.038535755
0.07119147 -0.097606234 0.30737185 0.13402243 0.02152502 -0.017839085 -0.01685953 -0.27876592
-0.008356341 0.2021201 -0.11072215 -0.12079228 -0.15985484 0.10144694 0.017851485 -0.25790456
-0.13096745 -0.04795935 0.12264166 0.086160086 -0.33785915 0.3852624 0.031432007 0.0112859765
0.13898203 0.053443056 0.14269711 -0.058581807 0.05465829 0.17024358 0.117791764 0.025440456
0.18566379 -0.29460964 -0.062044237 0.08544989 -0.10257453 0.27697057 0.030266795 0.17786795
0.23277512 0.3313471 -0.10408808 0.024992585 0.04415476 -0.029968737 -0.07953701 0.11676139
-0.080858745 0.16023646 -0.15338725 -0.05960219 0.14834198 -0.18830569 0.19741334 -0.022007294
-0.04412493 -0.20579068 -0.0709478 -0.08920481 -0.014437138 -0.4000757 -0.14123704 -0.07670816
0.06326425 0.1360026 0.027138518 0.026643854 -0.225427 0.043277495 0.08230368 0.13443166
-0.08160935 0.26647812 -0.039778695 -0.051308338 0.07967482 0.16637388 -0.34463874 0.31115004
-0.0565117 -0.029104125 0.32936275 0.15189831 0.15397586 0.0060157278 0.089684434 0.28265923
0.039132282 -0.2913463 -0.14918187 0.19324191 0.242681 0.020003418 -0.04917794 -0.10238776
0.07545444 -0.020873351 -0.17720155 0.015653878 -0.07061895 -0.26473308 -0.046238016 0.0324829
0.033615977 0.10465161 -0.13433304 -0.06941847 0.055291876 -0.038868293 0.21187723 0.002129572
0.07042119 -0.18486628 0.060046714 0.0040690103 0.10166695 -0.3700332 0.20026502 -0.23599139
0.055304695 0.006708945 -0.003328348 -0.11559892 0.04879102 0.07928496 -0.03513023 0.14302976
-0.038177818 -0.013304378 0.054913085 -0.095819645 -0.16453153 0.19849733 -0.27512947 0.09919003
-0.086517625 0.068016365 0.10179371 -0.24559352 0.23214504 0.02293133 -0.060768932 0.00791362
0.05810613 -0.018454308 0.14581348 0.046750396 -0.05968285 -0.12813324 -0.09046504 -0.0067492626
-0.022913754 -0.22729474 -0.06579026 0.05514303 0.32355782 -0.105692774 0.08693882 0.009038572

fc2.bias f4 [84]
00000000: 60b2 143e 2849 053d 080d 14be 4936 dcbd
00000010: 8cbb e1bd af31 2e3d f76d 2c3e 2427 433e
00000020: fd0b a93d e7e7 8c3d a02d 7a3c ecea 92bd
00000030: f78a 93bd a7b4 b8bd b419 49be 7fb0 af3d
00000040: 76b2 3e3e ac58 543d 6b30 17bd 8efc 96be
00000050: 2ebf dfbc ad95 17bd 285a d63b 31c4 6ebe
00000060: d065 cabd 794d 8f3e 8e91 8bbd 608c 18be
00000070: 7f53 8b3d 746b 0a3e 45ac 233e b558 eb3d
00000080: a8af 903d 7a3f 0b3e f0b5 14be 13c4 a1bd
00000090: d4a7 f8b9 7c44 e1bd bf41 1dbe 8d8a f2bd
000000a0: bbe2 97bb 8e3f 80bd d1da 7b3e 6eda 123e
000000b0: 616b afbd 8523 063e e438 4e3e ab51 163e
000000c0: 3e48 aabd a0f8 613b 3ec9 84bd 8226 00bd
000000d0: 9a76 5d3e 6a1e 88bc c0c4 85bd 781b 153d
000000e0: c81b 79be d84f cf3c ca54 bb3d 7d19 b8bd
000000f0: 8e6e 6dbc b38f 59bd 97be 933c 9268 19be
00000100: 6702 dabc 37cd f93c a5c7 dbbd 19cc 173c
00000110: d9bf b3bd 8c19 313b a80a 33be d91a f53d
00000120: 9563 1ebe d805 12be aec0 253e ccec e1bc
00000130: ecd1 02be 3fae d53d 7d7a 0a3d 54a5 583e
00000140: 6509 47be a882 89bd 1793 12be afe0 883d
0.1452117 0.03254047 -0.14458096 -0.107525416 -0.110221 0.04252785 0.16838823 0.190579
0.0825424 0.06880169 0.015269667 -0.07173714 -0.0720424 -0.09018832 -0.19638711 0.08578586
0.18622765 0.051842377 -0.03691141 -0.2948956 -0.027312841 -0.037007976 0.006541509 -0.23317029
-0.098827004 0.27988794 -0.06814872 -0.14897299 0.06803035 0.13517553 0.15983684 0.11491529
0.07064754 0.13598433 -0.14522529 -0.07898726 -0.00047427288 -0.109993905 -0.15357111 -0.11842833
-0.0046351827 -0.06262122 0.2459519 0.14341137 -0.08565403 0.13099487 0.2013889 0.14679591
-0.0831456 0.0034480467 -0.064836964 -0.031286724 0.21627274 -0.016616065 -0.06531668 0.03640315
-0.24327004 0.025306627 0.091470316 -0.089892365 -0.01449169 -0.053115558 0.018035216 -0.14981297
-0.026612474 0.030493362 -0.107314385 0.009264969 -0.087768264 0.0027023284 -0.17484534 0.119680114
-0.15467675 -0.14260042 0.16186783 -0.027578734 -0.12775391 0.104336254 0.03380822 0.21156818
-0.19437177 -0.06714374 -0.14313923 0.0668348

fc3.weight f4 [10, 84]
00000000: ebf4 13bf dd7f 113e d687 51be e6a2 1e3e
00000010: 0bfc b8be 92fe b0bd 4d06 973d 4a96 b5be
00000020: ff7e b93d 40d9 d9be fed9 273e ed8a b3bd
00000030: 1379 cbbd ca8a 1fbe 557d 9d3d a9f8 82be
00000040: c6ef 003d 975a 803e 6a52 8ebe fc1d 46bc
00000050: 1c45 1bbe b4ed b6be 7125 54bc 848f 87be
00000060: 26a0 a6be d0b2 ccbe 788c 243d c0ab bcbd
00000070: 7285 0a3e f809 48be 1143 66be 45e9 243e
00000080: 62c5 e7be d3db 2a3e 2bea a0bd 3f91 5dbe
00000090: c86f e7be bd3f b3be 5cee 61be 3c21 95bd
000000a0: b3ef 0dbf e9a9 b1bd 8636 b8bc 38ff ecbd
000000b0: 799a a6be b555 c8be 5eb3 a7bd 6071 563d
000000c0: 384e 0a3e 89c0 cf3c 8dd9 d2be b6be b7be
000000d0: c855 a8be dea8 01be 7fcb 4fbe 3b37 8dbc
000000e0: 9041 7abd 00fb 073e 5e5b ed3d d10b cfbe
000000f0: b1b0 f2be 8e78 51be ee88 d63c 0ec6 97be
00000100: 30c1 b53d c7a2 56be c706 e1be 00b3 83bd
00000110: 8ed7 97be 9c0c 07bd eaa3 7abe e910 943c
00000120: 5270 123c 1b1a 773e 12b8 303e 1d74 013e
00000130: d5e7 8f3d 64b4 df3c 9791 debd 48ed 0dbe
00000140: 81e7 fa3d 832d 7cbc 78f1 c4be ddd2 10bf
00000150: b3ed ddbd a203 8a3d 5102 03bd e021 943e
00000160: 4b46 d23e 1632 253e 48c9 7abe bc7f f0bd
00000170: f448 dcbe 8d64 72be a3f0 debe bacf 0fbd
00000180: 097a c0be 7d8c a83d bf32 c3bd 06c3 e3bc
00000190: b3d4 c4be f101 813e 4a19 cabe 97e7 f53d
000001a0: 0247 b33d cea9 073e dec8 a2be 1ca3 aebe
000001b0: 5331 4fbe 4bc8 8abe 7aec 193d f586 dbbe
000001c0: 7f7b c6be 9ac2 30bd 9cac 5bbd d712 293b
000001d0: 06a6 c3bd fa56 adbe 05d5 e9bd 4ae6 aabe
000001e0: f809 013e 77f8 c6be 7c58 4fbe 6233 283d
000001f0: dc91 8bbc 81ea 323d 7a36 30be 16d7 a53d
00000200: 6d0f b53d 30bd c83d df55 17be 1908 eb3d
00000210: 45b7 42be a21a 21bf 0064 4a3e f93d a5bd
00000220: 469e 2dbe 5a99 233e 832c fb3d 9611 fbbd
00000230: 7e93 15bf d08b fcbe 2a29 e0be 58f6 0dbe
00000240: 4442 193e 2d99 89be cc76 e73d 69d2 acbd
00000250: b01e a2be eea0 9dbd ef2c 38bb 0b8c ad3d
00000260: 5f27 66be b1f7 a7be 2e3d 89be b09d 0ebe
00000270: 665b c5be df8f 943d fa1f 6e3d 1e42 9cbe
00000280: 2661 43be ef94 fabe 77aa f7bd d797 41be
00000290: 1c88 fc3d 7cc1 a1be 3eeb af3d 9853 083e
000002a0: c3c9 0f3d 4210 2d3d 81f8 3e3e 9b8c 8fbe
000002b0: d752 30bf 758b 1f3e f886 043e 323a eebe
000002c0: dacd 033e 5c3e 8dbe 6ed9 9cbe cc3d c4be
000002d0: 5f45 8bbe c677 8fbe 81d9 57be 04ac 983e
000002e0: 9dc8 993d 6430 87be 96cf 5fbe ada4 853d
000002f0: b5d3 ddbd 4a7e 1b3d 8986 41be cec0 ddbe
00000300: c915 95bd 7887 acbe d23e b1bd 3c27 7fbe
00000310: 7bf3 afbe d28e 513e 0389 47be 3719 2fbe
00000320: 60bc d03d 0e44 023e 76e4 7fbd cdac e3be
00000330: e8c5 48be 29dd 1f3e ea56 50be 4533 e0bd
00000340: 1649 a7be cae9 713d 0ccf e2be bca0 e4bd
00000350: 6c18 d2bd 13fe d9be e530 04be 1f5e 023e
00000360: 1d3a debd a98f 13be a43a a33d fd11 0ebf
00000370: e2d0 393e d93d 743e f332 f8bc 27b0 d23d
00000380: 106b 26bf 980e a4be 88c5 2cbe b18f 36bf
00000390: bb5a 0fbe 3cc7 f6bd 2f1a 6f3e 38c4 4cbd
000003a0: 5c8f 1d3e 5461 5d3e b419 4b3d 12a6 c63d
000003b0: cfe4 1dbe 5d55 ac3c ef20 b2bd e532 7fbd
000003c0: d5ea 68bd 3ef1 9bbe 49e4 40be 4c67 4cbe
000003d0: d729 80be cab0 cebd 9265 58bd 0d06 1b3e
000003e0: cda0 073e ad63 433d bcb8 aa3d f18f 1aba
000003f0: d209 05be eec3 423d 3068 65be 9770 14bf
-0.5779559 0.14208932 -0.20461974 0.15491828 -0.36129794 -0.086423054 0.07374249 -0.35466224
0.09057426 -0.4254856 0.16391751 -0.08766732 -0.099352024 -0.15580288 0.07689921 -0.25580338
0.031478666 0.25069115 -0.27797252 -0.01209211 -0.15163082 -0.35728228 -0.01294838 -0.2647668
-0.3254406 -0.39980173 0.040173024 -0.09212446 0.13527468 -0.19535053 -0.22486521 0.1610461
-0.4526778 0.16685419 -0.07857164 -0.21637438 -0.4520247 -0.35009566 -0.22063583 -0.072817296
-0.55443877 -0.08674986 -0.022486936 -0.115721166 -0.32539728 -0.3912789 -0.081885085 0.052354217
0.135064 0.025360363 -0.41181603 -0.35887688 -0.32877946 -0.12662074 -0.20292471 -0.01723825
-0.06109768 0.13279343 0.115896925 -0.40438703 -0.4740043 -0.20456144 0.02618834 -0.2964329
0.08874738 -0.20960532 -0.43950483 -0.06430626 -0.29656643 -0.03297101 -0.24476591 0.01807447
0.008937912 0.24131052 0.17257717 0.1264195 0.0702664 0.027307697 -0.10867613 -0.13860047
0.12251187 -0.01539171 -0.38465476 -0.5657175 -0.10836353 0.06738974 -0.03198463 0.28932095
0.41069254 0.16132388 -0.24490845 -0.117431134 -0.4302441 -0.2367117 -0.43542966 -0.035110213
-0.37593105 0.08229921 -0.095311634 -0.027802955 -0.38443527 0.25196794 -0.3947242 0.12007063
0.08753778 0.13248369 -0.31793875 -0.34108818 -0.2023366 -0.27105936 0.037579037 -0.42876402
-0.38766095 -0.043154337 -0.05363141 0.0025798583 -0.09553151 -0.3385542 -0.114175834 -0.33378822
0.12601459 -0.3886144 -0.20248598 0.041064627 -0.017037325 0.04368067 -0.17208281 0.08097665
0.08840833 0.0980171 -0.14778851 0.11476154 -0.19015224 -0.62931263 0.1976471 -0.08068461
-0.16954908 0.15976468 0.12264349 -0.122592136 -0.5842818 -0.49325418 -0.43781406 -0.13863504
0.14966685 -0.26874676 0.113019556 -0.0843857 -0.31664038 -0.076967105 -0.0028102954 0.08473977
-0.22475956 -0.3280616 -0.2680449 -0.1392734 -0.38546294 0.07254004 0.058135964 -0.30519193
-0.19080028 -0.48941752 -0.120930605 -0.18905579 0.12330648 -0.3159293 0.08589791 0.13313138
0.035104524 0.042251833 0.18649484 -0.2803696 -0.68876404 0.15580542 0.12942111 -0.46528774
0.12871495 -0.2758664 -0.30634636 -0.38328397 -0.27201363 -0.28021067 -0.21079065 0.29818738
0.07508967 -0.26404107 -0.21856532 0.0652555 -0.108313955 0.037962236 -0.18898977 -0.4331116
-0.07279546 -0.33697104 -0.0865456 -0.2491731 -0.34365448 0.20464638 -0.1948586 -0.17099462
0.1019218 0.12721273 -0.062473737 -0.44467774 -0.19606745 0.1561171 -0.20345655 -0.10947279
-0.32672948 0.05906085 -0.4429859 -0.1116347 -0.10258564 -0.42576656 -0.12909277 0.12731217
-0.10850928 -0.14410271 0.07970169 -0.554962 0.18146089 0.23851718 -0.030297732 0.10287505
-0.65007114 -0.32042384 -0.16872227 -0.71313006 -0.13999455 -0.1204972 0.23349832 -0.049991816
0.15386719 0.21619159 0.04958506 0.09699644 -0.15419315 0.021036798 -0.08697688 -0.062304396
-0.05686458 -0.3045749 -0.18837084 -0.1996128 -0.2503192 -0.100923136 -0.05283124 0.15139027
0.13244934 0.04770248 0.083360165 -0.0005896083 -0.12992027 0.047550134 -0.22403026 -0.579843

fc3.bias f4 [10]
00000000: 3880 fcbd 14f2 70bb f45d ba3c 579a 0a3e
00000010: cabd ee3c 11cd 58bd c8b7 8dbd 7f01 99bd
00000020: f362 c33e 5b6d ea3d
-0.12329143 -0.0036765384 0.022749878 0.13535438 0.029143233 -0.05292994 -0.06919819 -0.074709885
0.3816143 0.11446639
