models/denoising.pth (torch, 39071 bytes, 9 tensors)

en_conv1.weight f4 [6, 1, 5, 5]
00000000: eaf7 c83f dcc8 0dbe 816e d83d 8972 073c
00000010: 2167 5f3f 96fe 12be 11cd 2fbe d3f5 863b
00000020: 677f bb39 296f debc 4543 8bbd de74 8dbd
00000030: 3a06 6d3c 7723 31bc 6c6b 6a3c 24b8 b1bd
00000040: 0bdc dabd ad85 b2bd de66 46bd 81a6 a23b
00000050: 53fc 233d 0846 783d 9f61 233d c2bc a2bb
00000060: d58d 45bc 612e d7be 940d eabe ad6a d7be
00000070: 75d8 bebe f6f5 94be 55c3 40be ab9a 0fbe
00000080: 526b 26bd c019 a7bd ead0 05be 5b4d ad3c
00000090: 8908 39bc 9c2b 3a3e 2ada ae3c f2c7 97bc
000000a0: 098f bdbb 76b3 cd3c c475 543d 74fe 483e
000000b0: ae3e 143e 2d1a 5b3f 5c41 63bd 1213 0c3e
000000c0: 613f 813d 62ab c03d 1c23 13bc 0ec5 2dbc
000000d0: 57f1 a1bb 721f fabc eaa0 c2bb cbf1 26bc
000000e0: 08bd 88bc 6ac7 033e 977c 97bd cba8 d83e
000000f0: 520b 083c 5302 d33d 1283 85bd 791a 5dbf
00000100: 3278 53be 0a4a 0ebd ba15 74bd e18d 8dbf
00000110: 026d f7bf 43f3 e1be c14f c33e 8583 383d
00000120: 88a3 f2bd 9d6e f5be b935 ab3f fd02 2dbf
00000130: a4f7 06bf ca63 033e e67e acbf 45fa 4fc0
00000140: fbdf 4ac0 51b3 cabf a93e a33c b578 c0bf
00000150: 1432 d4c0 a2a9 f6bf 257f 17be 25f0 693f
00000160: 1c70 4dbd 9cf1 9fc0 3555 81bd 3b6b 20bf
00000170: 5e63 04c0 ec19 7bc0 3c60 dbbf 7dbd 0e3e
00000180: cb78 363d d948 5f3d 47bf d43e 893b 62bd
00000190: 6eae c6bd 93ac 7f3d fb14 5a3d defc 68bc
000001a0: c5e2 f13e 3c52 1dbe c9e6 b73e 46e6 08bd
000001b0: df72 93bc 154e 843d eca5 3ec0 4839 05c0
000001c0: 411f b7be b6f7 fe39 091d 783e 9c4a b1bf
000001d0: dc08 9bbf aaba 083f f915 8bbe 7117 783e
000001e0: b0d1 6a3f cd02 b9bf 7ae1 0cc0 a391 a9bf
000001f0: cba1 dabe 015a 80bc 88fa bb3b 0b22 1e3d
00000200: 17d2 e53c 187d cb3d 829a 473b a335 8ebc
00000210: b38b 8e3d 214e 6d3e 7197 36bb 5d27 4ebc
00000220: 50b2 edbb eef7 a2bd 2ea3 093a cf00 ad3e
00000230: 526b c4bc 21e8 8bbc a8d5 a03e 27e1 433d
00000240: 535d bbbd 17d1 a33c 3428 223d 5a8d 07bc
00000250: e5c0 78bd e73e 9f3f
1.5700657 -0.13846153 0.10567952 0.008267053 0.8726674 -0.1435493 -0.1716807 0.00411866
0.00035762342 -0.027152615 -0.0679994 -0.06907056 0.014466817 -0.010811678 0.014307838 -0.086777
-0.10686501 -0.08716903 -0.048437946 0.0049636965 0.040035557 0.060613662 0.03988802 -0.0049663493
-0.012057741 -0.42027572 -0.45713484 -0.42073575 -0.3727452 -0.29093903 -0.18824513 -0.14023845
-0.040629692 -0.08159208 -0.13067976 0.02115505 -0.011293539 0.18180698 0.021344263 -0.018527959
-0.0057848734 0.025109988 0.051870123 0.19628316 0.14477035 0.85586816 -0.055482253 0.1367915
0.06310917 0.09407689 -0.008980539 -0.0106060635 -0.0049421 -0.030532572 -0.0059395926 -0.010189484
-0.0166917 0.12869039 -0.073968105 0.4231628 0.00830348 0.10303178 -0.0651914 -0.8636852
-0.2065132 -0.034738578 -0.059591033 -1.1058923 -1.9330142 -0.44130906 0.38146785 0.0450473
-0.11847597 -0.47935954 1.337577 -0.67582685 -0.5272162 0.12831035 -1.3476226 -3.2496502
-3.1699207 -1.5835973 0.01992734 -1.5036837 -6.631113 -1.9270518 -0.14794596 0.91382056
-0.050155744 -4.9982433 -0.0631508 -0.6266362 -2.068565 -3.9234571 -1.7138743 0.13939472
0.04454879 0.054512832 0.41552183 -0.05523256 -0.097012386 0.06242044 0.053242665 -0.0142204445
0.47243324 -0.15363401 0.35918263 -0.03342273 -0.01799911 0.064602055 -2.978877 -2.0816212
-0.35766032 0.00048631214 0.24229826 -1.3850894 -1.2112079 0.53409827 -0.271652 0.24227692
0.9172621 -1.445398 -2.201262 -1.324757 -0.42701563 -0.015667917 0.0057366528 0.038606685
0.02805428 0.09935969 0.0030457084 -0.01735956 0.06960239 0.23174335 -0.0027861262 -0.012582627
-0.0072539225 -0.07957445 0.0005250451 0.3378968 -0.023976956 -0.017078461 0.31413007 0.047822144
-0.091486596 0.019997163 0.039589122 -0.008273447 -0.060730834 1.2441071

en_conv1.bias f4 [6]
00000000: 6ef3 28ba 5ec3 313a 3a7b 903a 9e38 073f
00000010: 6a5e 803e 0393 a23a
-0.0006444965 0.0006781126 0.0011023053 0.52820766 0.25072032 0.0012403432

en_conv2.weight f4 [16, 6, 5, 5]
00000000: 39bb 75bd 1ca0 5d3d 12df dfbd c7f1 1dbd
00000010: 3564 7bbd b58e 8fbd fef0 163c 1240 b2bc
00000020: 419b 98bc c7af 50bd 025b 93bd 4087 263d
00000030: 53e1 86bd 0b51 5ebd ffac b2bd 746e d3bc
00000040: b085 f93c 1b47 d4bb 90ef 733d 6822 3b3c
00000050: c0db d23b 4bc6 50bc 3b71 99bd 780e 85bd
00000060: 33d7 e7bc 7a4f 6fbc 35a0 a5bb 8b02 10bd
00000070: d908 9abd 4dcd 7bbc f894 bcbd b89e 46bd
00000080: 8c50 96bd 6c42 5dbd 1b7d d0bd caab 69bd
00000090: b288 703c 1762 2abd 4fd7 d9bd 919b adbd
000000a0: 1a7c a5bc c1ce c9bd 4296 dabc 6fec ad3c
000000b0: 4cfd 8b3c 3519 0239 ecc3 aebc adfb 063d
000000c0: 9fd1 fabc 58a3 9f3c 37e7 cdbd 1f52 9f3b
000000d0: f45a 1d3d db1b e13c f4c8 31bd 2737 9dbd
000000e0: 5983 21bd 7f13 f23c 52ab f43c c15d b73c
000000f0: 313a 6bbd 31f0 d7bd 2d62 70bd 0dcb ed3c
00000100: cc4a 233d 8f47 b5bd 8669 a53b a95e 9db9
00000110: 4c46 45bd 5a94 34bb f8fb e4bd 778a 90bd
00000120: 5e5a 453d 68f7 8bbd 7deb 843c b4df 023d
00000130: 3cde 413d 3001 73ba be58 c2bd f876 13bd
00000140: 2a35 30bc 96a7 47bd 9338 69bd 91cd 143d
00000150: 9c5a 7dbd d2cc d03c 71b4 b7bc 09c9 babb
00000160: c2dd e4bd 43c9 4abd 03bc 313d 02d0 bd3c
00000170: 6326 a9bd 97c7 e5bd ffaf 8fbc 93f0 523d
00000180: 51d2 653d 7da2 38bd e23f f53c b7fa ff3b
00000190: 4d0f b0bd db96 bfbd c089 7abc 7391 283d
000001a0: 824d 60bd a731 d8bd fff2 553c 10e2 083d
000001b0: 7c73 343d 1d4c c6bd 98bf 9d3a 6b97 97bd
000001c0: ba6b 8d3c deaa 903b a4bc 70bd f75f 1dbd
000001d0: 3c12 67bc dcb0 a7bd 8754 66bd e816 21bd
000001e0: eed8 52bd a7b5 0dbd 9cae 023d e207 d5bc
000001f0: 728c 81bd ee7f 91bd c042 cabd 3ea0 79bd
00000200: f1a2 983c 3b75 bbbd fc4f 013b 4b03 c3bd
00000210: 9c2b 2b3d de90 cdbd 1a49 10bd d60c 5d3d
00000220: c7cb c4bd 5980 a7bc 68f1 0ebd 0781 d1bb
00000230: a6b6 febc eba3 fdbb 9021 bebd 51c1 babd
00000240: 2e23 3dbc 0ebd b03c 21c5 413d 7a69 0abd
00000250: 51ca 05bd 02ca a8bd 5665 49be 453a 683d
00000260: 79dc a0bb d901 2cbd 4863 7f3d 2622 e33d
00000270: 0d83 333e 7cb1 2a3d 5829 d83d 4fa7 0f3e
00000280: 89c5 bc3c f2ea 203e b718 11bd a278 a3bc
00000290: 858b 4fbc 6fbc 87bd f224 a53d 7904 07be
000002a0: 6aa7 90be 39fc 5bbe 7982 693a e6ad 0e3e
000002b0: 6c62 abbd 327b 6c3d a402 e93d 3662 a1be
000002c0: e620 7dbd 7628 31be 3324 3a3d efef d7bd
000002d0: f0f9 833e 92cf bd3e 2eee 283c 1f22 863e
000002e0: eddf ea3e 477c 23bd fec5 213e 4938 373e
000002f0: 601d 2cbd bfc2 b73d abaf 6c3e f8ef c63e
00000300: adb6 45bd 9c30 1cbe e425 2a3e 36bd 0dbf
00000310: be13 9f3d f5ee 6e3d b31c c43d 4687 263f
00000320: f883 ccbe 6e69 14bf d6e4 4dbf cd80 27bf
00000330: 4675 7bbe 1790 1cbf eb62 27bf 2348 c9be
00000340: e503 90be 1b04 6ebe f6e0 57be b801 82bd
00000350: 7c6f f03d ec98 933d 03a0 6b3d 3ac5 353e
00000360: fd94 8c3e 68cf 8dbd 5fbe c23d 52f7 0b3f
00000370: 60c6 49bf fa40 8abe 5f00 0ebf 9ac0 1cbf
00000380: dc3f 34c0 5816 ec3e a78a ee3b 0362 6dbe
00000390: 63ac c13e ff0b 0d3f 6986 24be 8420 bf3d
000003a0: 476f 933d 24df eb3e 6370 2d3e 4323 f4be
000003b0: e275 31be a5a8 2dbe 221b 78b9 9a11 68be
000003c0: e037 43bd 0915 213e 6c67 fbbd 9720 c73e
000003d0: 79fb fc3d 06a7 e8be 5ce8 88be e6ff 153f
000003e0: edbb 133e bafa 3abf 71eb 143f 41a1 fa3e
000003f0: 1b69 b93e 9bfc 7d3e b298 4a3e 55d7 d13e
-0.059993003 0.05410777 -0.10931219 -0.038560655 -0.06137486 -0.07009641 0.00921273 -0.021759067
-0.018628718 -0.050948884 -0.07195093 0.04065633 -0.06585946 -0.054276507 -0.08724403 -0.025809504
0.030459255 -0.006478203 0.059554636 0.011421777 0.0064348876 -0.012742589 -0.074923 -0.064969
-0.028300857 -0.014606351 -0.0050544986 -0.035158675 -0.07521219 -0.015368772 -0.09208101 -0.04849121
-0.07339582 -0.054018423 -0.10180112 -0.057048596 0.014681028 -0.041597452 -0.1063677 -0.084769376
-0.020200778 -0.09853888 -0.026682977 0.021230904 0.017088555 0.00012407156 -0.021333657 0.03295486
-0.030617533 0.019487068 -0.10053866 0.0048620845 0.038416818 0.027479103 -0.043404534 -0.07676535
-0.039431904 0.029550312 0.029866848 0.022383573 -0.057428543 -0.1054386 -0.058687378 0.029027486
0.039866254 -0.08851539 0.0050479798 -0.000300159 -0.048162743 -0.0027554245 -0.11180872 -0.0705766
0.048181884 -0.06834298 0.01622557 0.03195162 0.04733108 -0.00092698913 -0.094895825 -0.03600213
-0.010754863 -0.048743807 -0.05693872 0.036328856 -0.06185399 0.025488291 -0.022424908 -0.005700235
-0.111751094 -0.049508344 0.043392193 0.023170475 -0.08259275 -0.11219709 -0.017539976 0.05149896
0.056108776 -0.045076836 0.029937688 0.00781187 -0.085966684 -0.09354945 -0.015291631 0.041154336
-0.054761417 -0.105563454 0.013058423 0.033418715 0.044055447 -0.09682486 0.0012035249 -0.074019276
0.017263282 0.0044149 -0.05877365 -0.038421597 -0.0141034685 -0.0818803 -0.056232955 -0.039328486
-0.05147641 -0.034597065 0.0319048 -0.026004735 -0.06325616 -0.07104479 -0.09876013 -0.060943834
0.018632384 -0.09153219 0.0019731512 -0.095221125 0.041789636 -0.10037397 -0.035225965 0.05396732
-0.0960918 -0.020446943 -0.03489819 -0.006393555 -0.031092953 -0.007740488 -0.09283745 -0.091189034
-0.011544032 0.021574523 0.047307137 -0.033791997 -0.032663647 -0.08241655 -0.19667563 0.056696195
-0.004909095 -0.04199395 0.06235054 0.11090498 0.1753046 0.04167317 0.10554761 0.14028667
0.02304341 0.15714625 -0.03542396 -0.019954983 -0.012667541 -0.06627738 0.080636874 -0.131853
-0.28252727 -0.21482934 0.00089076866 0.13933524 -0.08368382 0.057734676 0.11377457 -0.31520241
-0.061798953 -0.17300591 0.04544468 -0.105438106 0.25776625 0.37072426 0.010310693 0.26197907
0.45873967 -0.039913442 0.15798184 0.17892565 -0.0420202 0.08972692 0.23113887 0.38854957
-0.048269916 -0.15252918 0.16616017 -0.5536684 0.077674374 0.058333356 0.095757864 0.6505016
-0.39944434 -0.5797337 -0.804273 -0.6543091 -0.24556455 -0.61157364 -0.6538531 -0.39312848
-0.2812797 -0.23243754 -0.2108191 -0.06347984 0.11740014 0.07206902 0.057525646 0.17751017
0.2745742 -0.06924325 0.09508967 0.54674256 -0.7881832 -0.27002698 -0.55469316 -0.61231387
-2.8163977 0.46110797 0.0072797122 -0.2318192 0.37826833 0.5509643 -0.16066898 0.09332374
0.07198959 0.4606868 0.16937403 -0.47683153 -0.17330125 -0.16958864 -0.00023661231 -0.22662964
-0.04766071 0.1573068 -0.122755855 0.38892052 0.12352652 -0.4543993 -0.26739776 0.58593595
0.14427157 -0.7303883 0.58171755 0.48951152 0.36213002 0.24803393 0.19784811 0.40984598

en_conv2.bias f4 [16]
00000000: d035 82bd bc07 1bbe 70d9 c9bd df55 653e
00000010: fd23 83be 812b 3c3e ccbd a0be 966b e83e
00000020: fc3c 093b 764b e63e 04a0 9cbe 97b1 963d
00000030: c943 19be e6c5 103f 08f6 0a3f b00b b63e
-0.0635792 -0.15139669 -0.09855926 0.22396038 -0.25613394 0.1837597 -0.31394804 0.45394582
0.002094089 0.44979447 -0.30590832 0.07358091 -0.14967264 0.5655197 0.54281664 0.35555792

de_convt1.weight f4 [16, 8, 7, 7]
00000000: 71f0 85bc 5765 27bd 0039 3ebd c28c a0bc
00000010: 0fc2 213d e86d 9c3c 07fe 2fbc bb5d b43c
00000020: c383 69bd 3ca9 173d eff1 353d b1de 3ebc
00000030: 0983 dd3b 6885 24bd 4807 e6bc 119a efbc
00000040: a008 fcbc d03a a8bc ea6f 1ebb 0528 d5bc
00000050: c04b 0cbc c2bd e5bb fd9c 98bc 0274 aa3c
00000060: cff3 2abd af02 80bc 7944 e4bc ea62 c43c
00000070: 61c8 d2bc ae63 013d 0da8 9bbc 08cc 6ebd
00000080: 9acc 2cb9 ddf0 c9bc fb23 88bc fb6d 1cbd
00000090: 86a7 51bd a6f6 1c3d d4a6 463d 66c2 f93b
000000a0: fdec 643d 6ba5 103c cbee 743c 3928 0c3d
000000b0: 5ca4 cc3c 4dae 4f3d 82ca 04bd 84e4 0d3c
000000c0: 82e2 40bc d82e c93c 5850 8a3d 3394 463d
000000d0: 986d bebc 2eee dbbc fe58 083d f382 a43d
000000e0: d9cf fbbc ca94 c03c 1b61 65bd 2d1d cc3c
000000f0: 0996 8cbc 30f0 863a bb58 013d a705 e2bc
00000100: 26d9 253d 526a 3dbd 73ff c43c 338f e1bb
00000110: d852 2bbd b79d 1abc 4096 263d 9a7d 383d
00000120: 1745 f03c 4079 e53c 0861 4a3b a890 b63c
00000130: 0f58 1a3d 1101 e73c e2c8 37bd b701 14bd
00000140: e6ba 633d fc75 11bd 36c0 0abd 7d1b 4fbd
00000150: e361 873d 8fb2 97bb a3b2 0d3d 1f43 523c
00000160: 6298 803c 1836 a6bc 6aa1 16bb 840f 39bd
00000170: 8ece 073b f287 c0bc f7b1 dcbb 9a89 10bd
00000180: 7384 963b 0152 903c 8c1b 98bc d491 fb3c
00000190: 8308 01bb 1330 3abc c535 e23b 5d6f e23b
000001a0: e6cd 4bbd c18d 0bbd 83b1 403c 89c3 ed3b
000001b0: c2fe 0bbc 44b3 6538 6a45 97bb 0815 dd3c
000001c0: 4d48 233b 6928 423c 0364 053d b93e 3a3c
000001d0: 51b0 763c 90e0 c2bb 01f8 6cbc e970 69bd
000001e0: c032 23bc 8d4f 30bd cfc4 d5bc 24aa d23c
000001f0: e6fc 57bd c897 e03b e5a2 ec3c 3f79 84bd
00000200: 6c87 5fbd 3805 e53c c496 063d 17e3 453c
00000210: 4a94 38bd 8ea8 01bd 0322 c03c 14c2 0a3d
00000220: 01b6 96bc 96ae 8ebc 418f ffbb 8487 e13b
00000230: 3216 0e3d 0e57 d13c ebf5 08bd b30f 03bc
00000240: 7943 5fbd b08b 2c3d 6920 80bd d66d 71bd
00000250: 091b ae3c 6107 c43c 03e7 083c f09a 583d
00000260: a708 773c 574f 543d fa4e 0e3d 9415 823d
00000270: 2ea3 403d ceb6 1abc a7a0 0a3c b292 303d
00000280: a29f 0d3d bfba 34bd fdac e9b9 700a 16bc
00000290: de0f a03c 840c 913c 5088 bf3c 04db 513d
000002a0: ea8d 5d3c 73d8 bb3b e12d 6abc f144 593c
000002b0: bb7e 033d fed3 0cbd 23a8 87bb 58ad 9dbb
000002c0: 7cca 193d d881 033d b8d5 153a a151 293d
000002d0: 8484 5d3d 2eee bd3b 057b d33c ee86 1fbc
000002e0: 10ca 1b39 5f8a e23b d861 02bd df37 4c3d
000002f0: 7f4b 3abd 366b f83c b2da da3a 1930 fe3c
00000300: 0ed6 633c 0a18 48bc 361a 39bc f4e9 403c
00000310: 2c33 103d a495 163d deeb f4bc e284 4f3c
00000320: 5d1b a33c e415 08bd 775e 55bd 8092 563b
00000330: 1425 e03c a4fc 5fbc 8d4e 15bd 4a52 803c
00000340: de78 5abc 5a14 423d a4bb 0e3a aa37 c0bc
00000350: 9bed ddbc ca1a 85bc 7122 dcbb 6b5a 313b
00000360: 4b2e 6cba 5039 90bc 5125 d1b9 b744 883c
00000370: 7e9e ddbc 0707 b93b bb6d 18bd 0d08 0d3d
00000380: d32d 17bd 9793 503d ca37 46bd 368a f63c
00000390: 32c3 4c3d 44b3 043d efcc eebc c2bf 0f3b
000003a0: 1d0d 543c a834 133d 88a9 bd3c a82c 8e3c
000003b0: f6ba 2fbd cdf5 d9bc f64b a73a 41e6 21bd
000003c0: dd12 0a3c 00cd 89bc fc60 c2bc 130b a6bc
000003d0: 10ed 41bc eed9 23bd 1890 11bd 15fa 30bd
000003e0: abac 413c ad51 d4bc 87b8 02bc 9976 16bd
000003f0: 6bb2 29bd 4995 c63c c857 30bc 2174 45bd
-0.016350003 -0.04086813 -0.04644108 -0.019598369 0.03949171 0.019095376 -0.010741717 0.02201735
-0.057010423 0.03702663 0.04442018 -0.011649773 0.0067600054 -0.04016629 -0.028079644 -0.02924827
-0.030765831 -0.020535856 -0.0024175593 -0.02602006 -0.008562982 -0.0070111463 -0.018629545 0.02080727
-0.04173642 -0.01562628 -0.027864682 0.023972947 -0.025730314 0.031589203 -0.019001031 -0.058300048
-0.00016479418 -0.024650985 -0.01661872 -0.038190823 -0.051185153 0.03832116 0.048498943 0.007622051
0.055890072 0.008828501 0.014949511 0.034218047 0.024980716 0.050703336 -0.03241969 0.008660439
-0.011772754 0.02455847 0.067536056 0.048481178 -0.023245618 -0.026846971 0.033287995 0.08032789
-0.030738758 0.023508448 -0.05600081 0.024916256 -0.017161386 0.001029497 0.03157876 -0.027590586
0.040490292 -0.046243973 0.024047589 -0.0068835258 -0.041827053 -0.009437016 0.040670633 0.045041658
0.02932982 0.028011918 0.003088059 0.022285774 0.037681635 0.02819875 -0.04486931 -0.036134448
0.055598162 -0.03551291 -0.033874713 -0.050563324 0.06610467 -0.00462944 0.03459419 0.012833386
0.015697662 -0.020289466 -0.0022984394 -0.045180812 0.0020722481 -0.023502324 -0.0067350823 -0.035287477
0.004593426 0.017617228 -0.018567823 0.030709185 -0.0019688911 -0.011364001 0.0069033825 0.006910248
-0.049756907 -0.034070734 0.011761072 0.0072559756 -0.008544626 5.476481e-05 -0.004616429 0.026987568
0.002491492 0.011850455 0.03256608 0.011367493 0.015056686 -0.00594718 -0.014463426 -0.056992445
-0.00996083 -0.043044616 -0.026094822 0.025715895 -0.052731417 0.0068540312 0.028886268 -0.06468438
-0.054572508 0.02795659 0.032858625 0.012078068 -0.045063294 -0.031654887 0.023453718 0.033876494
-0.018397333 -0.017417233 -0.0077990596 0.00688261 0.034689136 0.025554206 -0.03343765 -0.007999348
-0.054507706 0.042125404 -0.06256182 -0.05894264 0.021253126 0.0239293 0.008355859 0.052882135
0.0150777465 0.051833477 0.034743287 0.06351772 0.04703062 -0.009442998 0.008461154 0.04310865
0.034576066 -0.044123407 -0.0004457011 -0.009157762 0.019538816 0.017706163 0.023380429 0.05123426
0.0135226045 0.00573259 -0.014293165 0.013261066 0.03210328 -0.03438186 -0.0041399165 -0.004811924
0.03754662 0.03210625 0.00057157455 0.041337613 0.054081455 0.0057962155 0.025815496 -0.00973676
0.00014857226 0.006913468 -0.031831592 0.04985797 -0.045482155 0.03032456 0.0016697256 0.031028794
0.013906015 -0.012212763 -0.011297753 0.011774529 0.03520505 0.036763802 -0.029897626 0.012665959
0.019910509 -0.033224 -0.05209204 0.003274113 0.02736143 -0.013671074 -0.036451865 0.015664238
-0.013334481 0.04738269 0.0005444831 -0.023464043 -0.027090838 -0.016248126 -0.006717973 0.002706195
-0.0009009584 -0.017605454 -0.0003989139 0.016634328 -0.027053114 0.0056465897 -0.037214022 0.034431506
-0.036908936 0.050922003 -0.04839305 0.030095201 0.04999084 0.032397524 -0.029150454 0.0021934365
0.01294258 0.03593889 0.023152128 0.017355278 -0.04290291 -0.026606465 0.0012763727 -0.039526228
0.008427349 -0.016821384 -0.023727886 -0.020268952 -0.011836305 -0.040002756 -0.03553781 -0.043207247
0.011820952 -0.025917852 -0.007978565 -0.036734197 -0.04142992 0.024241107 -0.010763116 -0.048206452

de_convt1.bias f4 [8]
00000000: 57a3 203e 3d37 5a3d cb51 903b 2e50 16be
00000010: e397 013e bde3 553d 974e ef3c bda1 d93d
0.15687309 0.053275336 0.0044042817 -0.14679024 0.12655596 0.05221914 0.02921228 0.10626552

de_convt2.weight f4 [8, 4, 1, 1]
00000000: 3c34 d93e d8ee 363f fe04 dabe 0670 ec3e
00000010: 83d6 65bf 5802 da3e 5eb2 ab3c 2251 f73e
00000020: 57b6 053f e811 613d c46c fbbe 5c34 85be
00000030: 5382 013f 1f62 eb3d 852b 3e3f 4d83 7b3e
00000040: 901c 673e 6f94 35bf 149a 34bf 7d73 61bf
00000050: db0b 0a3f ef09 54bf 3509 10be 292c 2ebf
00000060: bd7d 0b3f a0f8 fbbe f841 73bf 81d1 393d
00000070: 826e e63e c26b 6bbf a856 81bb a0e8 91bf
0.42422664 0.71458197 -0.42581934 0.46179217 -0.89780444 0.42579913 0.020959076 0.48304087
0.52231354 0.054948717 -0.4910642 -0.2601651 0.50589484 0.114933245 0.74285156 0.24561806
0.2256949 -0.70929617 -0.70547605 -0.88066846 0.5392434 -0.8282766 -0.14066012 -0.68036133
0.54488736 -0.49213123 -0.95022535 0.045365814 0.45006186 -0.919613 -0.003947098 -1.1399117

de_convt2.bias f4 [4]
00000000: 3b0b dcbe 25a9 17ba ab2d 01be bfb1 9d3e
-0.42977318 -0.00057853974 -0.12615077 0.30799672

out.weight f4 [1, 4, 4, 4]
00000000: 9060 b33e 29b2 0c3f a9f5 1b3f 1c7a dc3e
00000010: 67db f43e 8f0d 303f ddb0 4e3f 8208 0b3f
00000020: 3e22 023f c4c7 4a3f a022 5c3f 8b22 163f
00000030: 1c68 ba3e 2490 073f 5007 143f 9e03 c53e
00000040: 6078 80be 3b1a aabe ba48 d0be 698a 7fbe
00000050: 7ba0 98be 70e6 b0be eb1c ddbe bf3a 95be
00000060: e659 a0be e64d 98be fdff dbbe 1732 7bbe
00000070: 0555 21be d13b 0ebe 6753 6bbe 096f 4fbe
00000080: a014 afbe 254b 2cbf fb86 45bf b2a0 13bf
00000090: 2c56 1ebf 9dd5 8ebf c646 92bf d1a7 5cbf
000000a0: 5664 24bf 9824 92bf 391d 93bf 1d5f 4dbf
000000b0: 3569 f0be 157a 56bf 0e42 43bf 6a44 0bbf
000000c0: 7296 10be b24e abbe 7244 5abe 360c e5bd
000000d0: 9df4 88be b59c 02bf 633c d9be ae29 2dbe
000000e0: b4a2 7fbe a280 05bf 7b0a b2be af5c 14be
000000f0: 93f0 47be 39fa b5be 82f7 84be 080e 2abd
0.3503461 0.5495935 0.6092172 0.43061912 0.4782364 0.6877069 0.8073862 0.54309857
0.508335 0.7921107 0.85990334 0.5864646 0.36407554 0.52954316 0.5782366 0.38479322
-0.2509184 -0.33223137 -0.40680486 -0.24955143 -0.29809937 -0.3455081 -0.43186125 -0.29146382
-0.31318587 -0.29746932 -0.4296874 -0.24530827 -0.15755089 -0.13890006 -0.22981034 -0.202572
-0.34195423 -0.6730216 -0.7715909 -0.57667077 -0.6185024 -1.115894 -1.1427848 -0.8619357
-0.642156 -1.1417418 -1.1493293 -0.80223256 -0.46955267 -0.8378003 -0.76272666 -0.54401267
-0.1411989 -0.33458477 -0.21315172 -0.1118397 -0.26749125 -0.51020366 -0.42428884 -0.16910431
-0.2496441 -0.52149403 -0.3477362 -0.14488481 -0.19525366 -0.35542467 -0.25970083 -0.041517287
