models/multitask_model.pth (torch, 277253 bytes, 15 tensors)

en_conv1.weight f4 [6, 1, 5, 5]
00000000: eb4a e33d 4cd5 803e ce2a a43b e5c9 e73d
00000010: badc 703e 379a 0c3e 21bf 85be 3e5c aa3e
00000020: 87dd df3c 9153 2bbe 3c16 7a3e 31cc 843d
00000030: 8967 993e da76 04be c08e 9abe e8cd d0bc
00000040: b478 713d ffa5 8eba 7a2a fdbd 8209 aabe
00000050: 1a32 cabd 93e7 09be 35b1 37be 99b8 1ebe
00000060: 8029 d5bd 2bab 45be b39e 7ebe 1dfb 32be
00000070: 8238 11bd 20a4 dc3d c503 93be 3306 5ebe
00000080: 33ef 193e 9b00 403e 7d8d 913e 6865 32be
00000090: b306 b2bd a393 48bc 3908 c83e 6fc5 83be
000000a0: 5dfb 09be 3761 793c 9d60 033e a816 0dbe
000000b0: 47fb 143f 1817 40be 156a 2ebd 68dd 063d
000000c0: 9e1e b53b 5211 aa3d 0502 b3bd cd7b 81be
000000d0: aa43 a3be 01ea b3be 7d9b 8bbe 241d 94bd
000000e0: 7c00 61be 507e 97be 109a 3abe 979e 7fbd
000000f0: 7123 dcbd ce37 86bd cdb1 11bd 479a 9c3c
00000100: 5609 2f3e bd2a f53e 3580 203e 6963 0d3f
00000110: 606a d93d 29e4 803e 1393 b63e 3750 09bd
00000120: 1b0e a8bc 42d7 683e 1bde 843d 98fc 7e3d
00000130: 2756 b33d f989 a8bc 93e5 243e 2a36 8bbd
00000140: 5a83 7abd abcb c7bc aae5 c1be 7c5d 75be
00000150: 1d86 0dbe b5b4 ecbd b5de c03d 5ae9 8c3e
00000160: c093 873f d6a9 88be ace2 2f3c 61c0 a33e
00000170: 7b94 e1be 61ed e9bc e5e6 0abd b192 84bd
00000180: e9fb 3fbe c2ff 0dbe 3990 6bbc c5b7 903d
00000190: 248c 323e a905 993d 7f75 7abd abd1 1c3d
000001a0: 6121 fe3c 2c40 0e3d bfca 833d 7e15 50bd
000001b0: 255c 93bd 79be f43d 0bed 2c3e bbbd 44be
000001c0: 185e 61be 450b f6bd 2162 673e 6398 15bc
000001d0: b312 b93e 4038 11be 26e9 433f 2397 0d3c
000001e0: 6d47 c03d faea a23b da87 85bc 6756 b0bc
000001f0: 76b4 bcbd c542 a03c bb99 523d 68ff 0f3e
00000200: 6ef4 cdbd 2723 3fbe b4f1 cc3d 61d5 663e
00000210: 6965 debd 4e40 78be 18c3 a2be 3cb0 b43e
00000220: 5830 033e 9796 80bb a554 adbe 3844 a2be
00000230: 25ae b23e 5b24 f93d 4b16 b0bd 7c24 8ebe
00000240: bec3 6fbe d929 923d 0536 dd3e 16ca 663e
00000250: 3a82 993e 7d97 84bd
0.11098274 0.25162733 0.0050099855 0.11317805 0.235217 0.13730703 -0.26122382 0.332735
0.027327312 -0.16731097 0.24422544 0.06484259 0.29961804 -0.12935963 -0.30187035 -0.025488809
0.058953002 -0.0010883211 -0.123616174 -0.3321038 -0.09872837 -0.13467245 -0.17938693 -0.15500106
-0.10408306 -0.19303577 -0.24865226 -0.17478605 -0.03545428 0.10773492 -0.28713813 -0.21682052
0.15032654 0.18750231 0.2842826 -0.17421496 -0.08692684 -0.012242231 0.39068773 -0.25736567
-0.13474794 0.015220932 0.12829824 -0.13778174 0.5819592 -0.1875881 -0.042581636 0.032925993
0.0055273315 0.08304085 -0.087406196 -0.25289765 -0.3188756 -0.35139468 -0.27267066 -0.07232121
-0.21972841 -0.29588556 -0.18222833 -0.062407102 -0.107489474 -0.06553613 -0.035569955 0.019116534
0.17093405 0.4788417 0.15673907 0.5522981 0.106159925 0.25174072 0.35659084 -0.033523764
-0.020514539 0.22738364 0.06487676 0.06225261 0.08756667 -0.020573603 0.161032 -0.0679744
-0.061160423 -0.024389109 -0.37870532 -0.23961443 -0.13820691 -0.11557905 0.09417478 0.27521783
1.0591965 -0.26692075 0.010735195 0.3198271 -0.44058594 -0.028555574 -0.033911604 -0.06473292
-0.1874844 -0.13867095 -0.014377647 0.07066301 0.17436272 0.07471783 -0.06114721 0.038285892
0.031021776 0.034729168 0.06435155 -0.050801747 -0.071953095 0.11950392 0.168873 -0.19213001
-0.2200855 -0.12013868 0.22596027 -0.00913057 0.3614708 -0.14181614 0.7652763 0.008641991
0.093886234 0.004971859 -0.01630013 -0.021525575 -0.09214108 0.019563088 0.05141614 0.14062274
-0.10056387 -0.18665753 0.10007039 0.22542335 -0.10859186 -0.2424328 -0.3178947 0.35290706
0.1281141 -0.0039242017 -0.3385364 -0.31692672 0.34898487 0.121651374 -0.08598002 -0.2776221
-0.23414513 0.07136888 0.43205276 0.22538027 0.29982167 -0.064742066

en_conv1.bias f4 [6]
00000000: 959f cfbb 8150 69bd f763 893b 3ea4 853b
00000010: 48ee 81be 19bf 45bc
-0.0063361623 -0.05696154 0.004192825 0.004078417 -0.25377107 -0.012069487

en_conv2.weight f4 [16, 6, 5, 5]
00000000: 1e05 d2bd 9fbf 863d 6393 a53d 2860 a73d
00000010: 3bfc df3d 29e3 523d 6dc9 ac3c cabc 7bbd
00000020: 34cc c2bc 610e d1ba 911d 06be 58df 73bd
00000030: 197d 89bd 3cbb 38bd c622 94bc da55 2bbd
00000040: ffc7 d13c b5ff f93c d277 00bd 91d7 e63b
00000050: 44b5 36bd 2445 72bd 4f86 4d3c ad79 f4ba
00000060: 792a 4abd 1399 463e 57e7 163e c1da 8b3d
00000070: d444 743d 9a00 bc3c 15ed cc3d 7fc7 7a3d
00000080: a6b2 cfba 46b6 98bc 0e58 303d 6a48 b73d
00000090: c63e 823c 20cf 9e3b f1f0 c93c c83b b43d
000000a0: c2cf aa3d f7a8 01bc 7aef 0abd d012 943c
000000b0: 2fb3 72bd 8584 dd3d 718d c83c 2e96 24bd
000000c0: d91e dcbd 9ef1 793e 486d 3abc 7b90 873d
000000d0: 41f5 ca3c c58c 253c e035 4f3e 484d 7dbd
000000e0: ba91 833d ad3d 183d ded8 c83b edd3 433c
000000f0: 70b2 88bd 6f89 8c3d 120c 34bd 000a 953c
00000100: 890a 613d 6e41 4cbd 181e 243d 7b73 573c
00000110: f921 f8bc 8d3b ff3c dac4 12be e2f0 543d
00000120: 410d 81bc 5820 bbbd a4d8 663e babe 773c
00000130: 7ef1 f1b8 d4d8 b9bb d4b4 de39 ed0d 353d
00000140: cddb fe3a 1ee9 d03c dcbf 473d 66b1 8a3b
00000150: 605f a7bc 5080 8fbc 2b59 35bd d040 3abd
00000160: 4112 1ebd 5e1e 9ebd ec0d 693d c37e 88bb
00000170: 744c 063c ad08 90bb 1b01 54bc 47d4 ba3d
00000180: db7c e73c 86da 8a3d 8221 723d d2bd 363d
00000190: 5785 bebd 102c c03c c5c9 82bc 9775 8b3d
000001a0: 33ae fa3d 7a06 033a e08c 063d a41a f03c
000001b0: 283e 143e 3902 263e 3c78 01bc 5232 7cbb
000001c0: 06ad 803d 0546 0a3e 9ade 373e dad9 603c
000001d0: 8d6e 143d 561b a33c 268f 193e 6860 253e
000001e0: 29ab f4bd de98 2e3d 12cf dbba 136b 79bd
000001f0: e629 223e def1 79bc 8fa6 ddb9 5302 73bd
00000200: e007 8abd 4dbc 8dbc 2a13 a33d 8321 373a
00000210: d845 e0bb 30cc 6bba 5c97 4d3c de12 ebbc
00000220: 048b e8bb 5e8f c4bc b38a 52bc d8f9 7f3b
00000230: e48e 763d a6bf f4bc d331 2ebd dc96 cfbd
00000240: 70ac c8bd 2bdd aa3c e875 f23c 41ed a33d
00000250: 1882 f13c 93d3 be3d fd91 eb3d 5ff6 3dbd
00000260: 5e75 c6bb 5844 7bbd 3709 02be 795f 49be
00000270: 0f23 c53c 579d 393e cf47 1dbd 3396 62be
00000280: 48c7 b6be c636 7d3d 4019 073e 1ba1 b3be
00000290: 99b1 cfbe 81c4 073e a763 1b3e 0812 7e3e
000002a0: 0f60 2ebe 9b88 31be 3a53 cf3d 1a67 2e3e
000002b0: 0cd7 093e 5f5d f4bd 7f95 acbd da96 893d
000002c0: 89a7 0b3e ba16 2ebc cbaa d4be 5b77 72be
000002d0: 40ff 33bc 1eaf 323e 93b9 74bd 99b4 febe
000002e0: edfd 1abc ff58 303e 01ae 323e 86f6 b7be
000002f0: 2cd2 82be e8ad ea3d 9799 7c3e 20b0 833d
00000300: 1fb0 10bf fb82 3abd 8665 953c 5974 3f3e
00000310: e228 bbbc 7915 01bf 540f 84bc d7a9 9f3d
00000320: 323b 633b 33ec 4d3e 9b91 143e 223e abbd
00000330: f35d 5dbe 3902 66be 8102 913c e00d 2a3c
00000340: 175d 97be 0f76 82bd 3aa4 6c3c 3c4a 1bbc
00000350: 0d5c c0bc 1d23 e1bd bde9 e83d 1197 d7bd
00000360: 65e6 14be 06ef 49ba 4504 533d 5aed bcbd
00000370: d3a9 fdbd 1f2f 3ebd 546b a53d 194f 903d
00000380: d853 52bb d850 4b3e da20 563d aba4 e23c
00000390: 58e4 0bbe ccab 2bbe b4af 26bd 3c96 843e
000003a0: ccdf fd3d 255a c1be 4573 2ebe e3f6 44bd
000003b0: 3a4b 333e c4dd 20be 164d bfbe 3174 763e
000003c0: 75ba f53d 60e5 353e c5ea e5bd 26dc 24be
000003d0: 47f3 3a3e 211c 123e d200 0a3c 3b9a 8cbe
000003e0: afd0 9cbe 4e94 14bd 868b c3bc aa22 5f3d
000003f0: 3fc7 2ebe b542 8ebe 83e8 52be 4897 423d
-0.10254882 0.065795176 0.080847524 0.08172637 0.10936781 0.051486168 0.021092141 -0.06145934
-0.023779012 -0.001594972 -0.13097216 -0.05953917 -0.067133136 -0.045100436 -0.018082988 -0.04182992
0.02560806 0.030517438 -0.03136427 0.0070447405 -0.044606462 -0.05914797 0.012544229 -0.0018651985
-0.04935691 0.1939433 0.14736687 0.06828833 0.059635952 0.022949506 0.10006157 0.06122541
-0.0015846088 -0.018641602 0.043052725 0.08949359 0.015899073 0.0048464686 0.024651023 0.08800465
0.08340408 -0.0079138195 -0.03391979 0.018075377 -0.059252914 0.10816292 0.024481507 -0.040182285
-0.10748071 0.24408576 -0.011378594 0.06619354 0.02477515 0.010104363 0.20235395 -0.06184128
0.064242795 0.037168194 0.006129368 0.0119523825 -0.06674659 0.06862151 -0.043956824 0.018193245
0.054941688 -0.049867086 0.040067762 0.013150091 -0.030289637 0.031156326 -0.14332905 0.051987536
-0.01575339 -0.091370285 0.2254358 0.015121156 -0.00011536757 -0.0056716 0.00042477867 0.044202734
0.0019444168 0.025501784 0.048766956 0.0042325733 -0.02043122 -0.017517239 -0.04427449 -0.045471966
-0.038591627 -0.07720636 0.056898043 -0.004165502 0.008196939 -0.0043955655 -0.012939717 0.0912252
0.028257778 0.06779961 0.059113987 0.04461462 -0.09302776 0.02345851 -0.015965352 0.06809538
0.12240257 0.00049982185 0.032849193 0.029309578 0.14476836 0.16211785 -0.007902201 -0.0038482142
0.062830016 0.13503273 0.1795601 0.013723815 0.036238242 0.019910496 0.14996013 0.16150057
-0.11946709 0.042626254 -0.0016770086 -0.06089313 0.15836295 -0.01525542 -0.000422765 -0.05932839
-0.06739783 -0.017301703 0.0796264 0.00069858896 -0.0068442635 -0.0008994965 0.012548294 -0.02869552
-0.00709665 -0.023994144 -0.012850451 0.003905883 0.060194865 -0.029876541 -0.042527985 -0.10136196
-0.09798515 0.020857414 0.029597238 0.08004237 0.029480979 0.09317698 0.115024544 -0.046377536
-0.0060564717 -0.061344475 -0.12698828 -0.19665326 0.024064569 0.18126427 -0.03839856 -0.22127609
-0.35698915 0.061819814 0.13193226 -0.3508385 -0.40565184 0.13258554 0.15174733 0.24811566
-0.17028831 -0.17337267 0.10123296 0.17031518 0.1346094 -0.119318716 -0.084269516 0.06718226
0.13638128 -0.010625536 -0.41536555 -0.23678343 -0.010986149 0.17449614 -0.05974729 -0.4974716
-0.009459955 0.1722145 0.1744919 -0.3593027 -0.25550973 0.11458951 0.24667965 0.064300776
-0.5651874 -0.04553507 0.018236887 0.18696727 -0.022846643 -0.5042339 -0.01612059 0.07796066
0.0034672734 0.20109634 0.14508669 -0.0836146 -0.2161787 -0.22461785 0.01770139 0.010379285
-0.2956321 -0.06370174 0.014443452 -0.009478148 -0.023481393 -0.109930255 0.11372707 -0.105268605
-0.14541014 -0.0007703159 0.051517744 -0.09224959 -0.12385907 -0.046431657 0.08077112 0.07046337
-0.0032093432 0.19855058 0.052277423 0.02766641 -0.13661325 -0.16764754 -0.040694907 0.2589587
0.123962015 -0.37764087 -0.1703616 -0.048087012 0.17509165 -0.15709597 -0.373635 0.24067761
0.119984545 0.17763281 -0.11226419 -0.16099605 0.18256865 0.14268543 0.008423047 -0.27461419
-0.30627963 -0.036274247 -0.02387024 0.054476418 -0.17068194 -0.27785268 -0.20596509 0.047507554

en_conv2.bias f4 [16]
00000000: ee6a e2be 0415 2abe 08f3 c0bd 2b1b 29be
00000010: b618 08bf 5bb4 933d 6e57 4cbd 1934 e3bd
00000020: ede2 89be ee57 4e3c c65c a3be f940 113e
00000030: bf27 18bf ac3d 8f3d d50a d0be 37e2 92bd
-0.44222206 -0.1660958 -0.094213545 -0.1651427 -0.53162706 0.072121345 -0.049888067 -0.11093921
-0.26930943 0.012594206 -0.31906718 0.14184941 -0.5943565 0.06994185 -0.40633264 -0.07172053

fc1.weight f4 [120, 400]
00000000: 8fbf 89bd a7fc 4abd d6bb 2fbb ee89 4cbb
00000010: fa2e 36bc c1d7 85bc f236 3fbb b663 14bd
00000020: 53d4 81bd 1e72 30bd efcc ee3c f9c0 8dbc
00000030: 055a f7ba e4ce 173d 3c7d 00bb 79af ab3c
00000040: 8c94 82bb bbbb 39bd c0e0 97bb 587c 173d
00000050: ee84 71bd 63d6 a4bd 74cd f33c 2914 29bd
00000060: 890a 9d3c 06a0 97bc f731 2bbc 2008 49bd
00000070: e38e 723c 7a6d 1abd 2092 3fbd eedb b1bc
00000080: 252d 4a3b 13cf 2abb 18ba c8bc da5d 653c
00000090: f3a7 0fbd d208 233d a015 debc 2004 61bd
000000a0: b718 08bc 456b b13c 8075 64bd e6df 6bbd
000000b0: 4bd5 d7bc 78dd 21bd a401 a33c 0e02 29bd
000000c0: 0234 19bd f349 7e3c 9422 fcbb 01e2 dcbb
000000d0: 8d27 b2bc 845a 903c 728e cabb 060c 7cbb
000000e0: a00a 70bd 089b 753c 958e 24bd 8693 77bd
000000f0: dba9 60bd fe7c aebc 7f3e 3b3c b0f4 39bd
00000100: 410c 1ebb 84d4 ddbc 4d81 c33c ab82 1fbd
00000110: 2946 53ba 3ffa 9dbc 689f b13c 9594 c23c
00000120: 6590 7abd 8f9d 58bd 72cd 5fba ad12 92bd
00000130: 0216 993c 87bd 46bd 53d1 30bc 1a6a ab38
00000140: 4e91 06bd 6b3a 90bc 16e6 12bd cffa 34ba
00000150: 40eb a0bc ee66 3fbd 29eb 1a3d 20cb 49bd
00000160: 0cb1 a3bd 37ed dbbc 8629 6ebc d101 27bd
00000170: be23 0cbd c402 01bd 654c fabc fc0e 603c
00000180: 1253 5bbd cac9 0ebc 7aba 1bbc 6f11 4dbd
00000190: 992e 923c 5cf4 643c 64a2 523c e8e3 27bd
000001a0: 38cb 37bd e3ac 54bd a52c a4bd 50d4 483c
000001b0: 1560 a03c 04b8 6cbc 1132 4dbc 6f7d b73c
000001c0: 7bbb 9bbc db19 08bd bcba 46bc 6c3e 44bd
000001d0: 95dc 9e3c 84d8 023d 5db0 cdbb 908e 883d
000001e0: 8772 51bc aa31 33bd 5bad 34bd 9137 1abc
000001f0: 5826 e3bc 8570 91bd d324 45bb e31d b23c
00000200: bd42 7fbb a918 783b b5fa 8bbc 1927 2ebc
00000210: 3bec 20bd df88 ef3c 49c4 56bd 4b98 003c
00000220: 782c 7bbc 58ff d23a d06f 823c 884a f63c
00000230: 815d 293d 2609 243d 50d7 033d 2349 fdbc
00000240: b778 5ebd be30 a3bd 416c afbd 7816 f2bc
00000250: b2d2 7d3c e787 35bd 2e96 b2ba 3d81 70bd
00000260: ad21 69bd d508 273d 0054 953c eb0f f3bb
00000270: 1421 3bbd 05cb 9dbd 2f23 3ebd 9633 92bd
00000280: 27c5 37bd 1c7c 5dbd 1921 a5bd 1d6b aa3c
00000290: ab84 abbc 1611 3dbd 2689 4fbd 2afa a43c
000002a0: 94a3 82bd 30c7 81bc 13de 6abd 43ee 8d3c
000002b0: 0ec6 19bc dc26 073d d8b9 093b 6ed9 c5bc
000002c0: 9565 debb 93e2 ea3b cc3a f5bc 7a73 b3bc
000002d0: d579 1ebd 371a 26bd d35e 4cbd 57ce 2c3c
000002e0: a829 1b3c efd7 37bd c8c6 3b3c 1c25 f33b
000002f0: bcbf 24bc a405 57bd 4dfa 4fbd 5940 6b3b
00000300: c527 71bd c38f 20bd 876f 82bd 3380 703b
00000310: 544e 35bd 70ab 97bc ea33 66bd 226f 9abd
00000320: 1328 9dbd 4d67 43bb 808b 02bd 233e a1bd
00000330: ef86 1dbd bb76 9dbd 9169 9c3c 7899 103c
00000340: 6db2 87bc ad06 6a3b 85e5 023d bc67 b13c
00000350: eeae 49bd ce4a e33a 3d97 103c 4065 083d
00000360: eb67 993c 2f28 943c 5752 dcbc 8658 1a3d
00000370: b4d8 5e3c 3add b23c da1d 00bd 50fe 813c
00000380: 7605 7dbc 8b5e 2fbd 9bc3 5cbd 91e5 273d
00000390: 1009 f2bc 6d4e 39bd 660b 8cbd 0e6b 87bd
000003a0: 5388 903c bf6b 8abc 5687 d53c 2952 43bd
000003b0: f6b4 61bd 2f55 103d d806 87bd 7c80 793c
000003c0: feb6 0dbd b6ef 73bd 001a 163c ddf2 86bd
000003d0: 9120 a4bb a9d9 cc3c e18f f4bc 0f14 0cbd
000003e0: 69e6 f4bc 58d5 26bd 4eab 18bd 263f 55bd
000003f0: f000 033b 2742 3f3d 4d87 b7bc ce17 9bbd
-0.0672599 -0.049557354 -0.002681484 -0.0031210142 -0.0111195985 -0.016338231 -0.0029177037 -0.036227904
-0.06339326 -0.04307758 0.029150454 -0.01730393 -0.0018871432 0.03706254 -0.0019605896 0.020957695
-0.0039849933 -0.04534505 -0.0046349466 0.036983818 -0.058964662 -0.080487035 0.029761054 -0.04127899
0.019170063 -0.018508922 -0.010448924 -0.049080014 0.014804575 -0.03770206 -0.046770215 -0.021711316
0.0030849662 -0.0026063367 -0.024502799 0.013999427 -0.03507228 0.039803334 -0.027109921 -0.054935575
-0.008306674 0.021657595 -0.05577612 -0.057586573 -0.026346823 -0.03951785 0.019898243 -0.041261725
-0.037403114 0.015520561 -0.0076945517 -0.006740809 -0.021747375 0.017621286 -0.0061815316 -0.0038459315
-0.058603883 0.014990576 -0.04017504 -0.060443424 -0.054849487 -0.021299835 0.011428474 -0.045399368
-0.002411619 -0.027078874 0.023865366 -0.038942974 -0.0008059466 -0.019284366 0.021682456 0.02375249
-0.06117286 -0.052884635 -0.00085373886 -0.071324684 0.018687252 -0.04852059 -0.010792094 8.173678e-05
-0.032853417 -0.01760598 -0.03586396 -0.00069038285 -0.019643426 -0.04672902 0.037821922 -0.04926598
-0.079927534 -0.026846511 -0.014536267 -0.040773217 -0.034213774 -0.031496778 -0.030554006 0.013675448
-0.05354602 -0.008715102 -0.009504909 -0.050065454 0.017844485 0.013974275 0.0128561 -0.040988833
-0.04487154 -0.05192269 -0.08016328 0.0122576505 0.019577065 -0.01444817 -0.012524144 0.022398679
-0.019010296 -0.033227783 -0.012129482 -0.047911093 0.019392291 0.031944767 -0.0062771277 0.06667817
-0.012783653 -0.043748535 -0.044110637 -0.009412662 -0.027728245 -0.071015395 -0.0030081763 0.021742767
-0.0038949691 0.0037856495 -0.01708732 -0.010629439 -0.039287787 0.02924007 -0.052433286 0.0078488095
-0.015330426 0.0016097827 0.015922457 0.030064836 0.041348938 0.040047787 0.03218776 -0.030918663
-0.05431434 -0.07968281 -0.0856557 -0.02955173 0.015492128 -0.04431906 -0.0013625079 -0.058717
-0.05691688 0.040779907 0.01822853 -0.007417669 -0.045685843 -0.077047385 -0.046420272 -0.071387455
-0.044865754 -0.054073438 -0.080629535 0.020803029 -0.020937284 -0.046158873 -0.050667904 0.020138819
-0.06378856 -0.01584205 -0.057340693 0.017325526 -0.009385599 0.032996044 0.0021015313 -0.02415153
-0.006787012 0.007168123 -0.029935263 -0.02190565 -0.038690407 -0.040552344 -0.04989512 0.010547242
0.009470381 -0.044883665 0.011460967 0.0074201953 -0.010055479 -0.052495614 -0.050775815 0.0035896508
-0.058875818 -0.0391996 -0.063689284 0.0036697506 -0.044264153 -0.018514365 -0.056201853 -0.07540728
-0.07673659 -0.002981621 -0.03187132 -0.0787318 -0.03845876 -0.07688662 0.019093307 0.008825652
-0.016564572 0.0035709545 0.031957168 0.02165591 -0.04923909 0.0017341019 0.0088251205 0.033299685
0.01872631 0.018085567 -0.026894731 0.03768208 0.013601471 0.021834005 -0.03127847 0.015868336
-0.0154431965 -0.042814773 -0.05389748 0.040990416 -0.029545337 -0.04524081 -0.068381116 -0.06612216
0.01764313 -0.01689708 0.02606551 -0.047685776 -0.05510422 0.035237487 -0.06593102 0.015228387
-0.034598343 -0.059554778 0.009161472 -0.06589291 -0.005008765 0.025006132 -0.029853763 -0.034198817
-0.029895024 -0.040730804 -0.037272744 -0.052062176 0.0019989572 0.046693947 -0.022403384 -0.075729

fc1.bias f4 [120]
00000000: 1336 9bbc bdfc 273d 2e54 7e3d a503 46bd
00000010: 7acf a9bd 777c 00bd 87d8 693d 1db2 803c
00000020: 6872 0a3c 7440 0f3e 2097 2f3e c91d 5b3b
00000030: 13cd 8e3d 0a1c fbbb 11d9 183d 3435 ec3d
00000040: f91a ccbc 289d 523d 977b 9bbd 6c05 10bd
00000050: 9949 a93d 3f85 2fbe 9566 9cbd cb16 4cbd
00000060: 2d71 50bd 7845 97bd 9dd4 eabd a2ff 3dbd
00000070: 9c88 313d b308 39bd 4a18 9ebd 32f3 4a3c
00000080: 98ae 4a3c e380 ef3c 313e 3fbd be70 bbbd
00000090: c903 13bd ad33 283d 68b8 1b3c 4b9a 94bd
000000a0: 14ed f8bd f7e4 473c a525 00be 35ac 5bbe
000000b0: a9b5 5dbe 3502 453c eb6e a2bd c240 0e3c
000000c0: 97df 3cbd 7a19 a5bc de52 de3d d83e 47bd
000000d0: 06c4 b23d 3d83 37bd 4422 8fbd 862d 8fbd
000000e0: c87c 1f3e 485c 3dbd 2221 48bd adc3 9b3d
000000f0: eb78 17bd 6df7 a43c 20be cdbb f320 fcbc
00000100: bb29 f03c ca2e 0dbc fe41 2bbd 0edc ffba
00000110: ea46 cc3b bdcf 96bc 5ced 9b3c 4a39 b1bc
00000120: 01fa 8abd 673e 8fbd 00c5 14bd 304d 47be
00000130: d875 863d c12c c33c 3d61 823d 4edb 1d3e
00000140: 4f4c ba3d c032 9439 5c9e ff3c dbfd c9bd
00000150: a4ae b43d 6ab3 09be 8fb3 cebd 1dbb 0abe
00000160: bfc8 033e 4c26 74bd 3102 a8bc dbb2 95bd
00000170: ddd8 953d cc1d 693d d390 31bb bfad 943d
00000180: 0eab 403e 8ff9 edbd af75 27bd 7061 a3bd
00000190: e12e 483c e757 033d 414e 383d 0d69 e43d
000001a0: 8073 51bd bb30 d3bc 4b0c 20bd 2c17 19bd
000001b0: 5f55 fabc 7766 233c 8082 a83c daed 89bc
000001c0: 8d90 7abc 2342 353d 9422 25bd db36 983d
000001d0: e959 1d3d 485d 1b3e a0f2 e2bc 3c91 223c
-0.018946683 0.041012514 0.062092 -0.04834332 -0.08291526 -0.0313687 0.057091262 0.015709931
0.008450128 0.1398943 0.17147493 0.0033434501 0.069727086 -0.0076632546 0.037316386 0.11533585
-0.024915205 0.051419407 -0.07591932 -0.03516142 0.08265991 -0.17140673 -0.076367535 -0.049826425
-0.050889183 -0.07386297 -0.11466334 -0.04638637 0.04334317 -0.04517431 -0.077194765 0.012387084
0.012370728 0.029236263 -0.04669017 -0.09152363 -0.03589228 0.041064907 0.009504415 -0.072559915
-0.12154594 0.012200586 -0.1251436 -0.2145241 -0.21651329 0.012024452 -0.07931312 0.008682432
-0.04611167 -0.02015375 0.108556494 -0.048643917 0.08728795 -0.044802893 -0.069889575 -0.06991105
0.15574944 -0.046230584 -0.048859723 0.076056816 -0.03698055 0.020137513 -0.006278768 -0.03077743
0.029316774 -0.008617112 -0.041810982 -0.0019520537 0.0062340396 -0.018409604 0.01903408 -0.021633763
-0.06785966 -0.06994324 -0.036320686 -0.19463038 0.06565446 0.023825051 0.06366203 0.1541569
0.09096586 0.00028266571 0.031203441 -0.09862872 0.088223726 -0.13447347 -0.10092842 -0.1354794
0.12869547 -0.059606835 -0.020508857 -0.073095046 0.07316754 0.056913182 -0.0027094379 0.07259702
0.18815252 -0.11619865 -0.040883716 -0.07977569 0.012218208 0.032066252 0.044996504 0.11152849
-0.05113554 -0.025780072 -0.039074223 -0.037375614 -0.030558286 0.00997316 0.02057004 -0.01683705
-0.015293253 0.044252526 -0.04031618 0.07432338 0.038415823 0.15172303 -0.027703583 0.009922322

fc2.weight f4 [84, 120]
00000000: eccd 5bbd 6802 b73d 0fa3 5c3c e0c5 8fbe
00000010: 2d14 a23d 337b 123e 5bc6 26be c8c9 633c
00000020: 896e 623e 8721 093e ba4a 863d 765f 5dbd
00000030: ef2c 51be f9c6 5d3d d18f 07be e8ad 2fbe
00000040: 79fc d2bd 822d a1be e129 9fbd bdf0 26bc
00000050: cd6b 80be 8c8b 02bd 93ff c7bd ce5c 90bd
00000060: 9ab8 873d ef8c 38bd 8598 853e 9873 b83d
00000070: 9995 aa3d 0d55 c53c c43d 743d 085a f33c
00000080: fed7 7d3b 72d4 643e 4999 19bd 1547 19be
00000090: 3dbf 553e 1be0 4cbe 709f 233d 9b84 2c3d
000000a0: 9708 a1bd 9b60 f33d c2d1 ca3d caab 72be
000000b0: ec89 1c3e b9c2 3d3d d288 763d c382 233d
000000c0: 761d 96be 67ab 87bd 0761 d2bb 1e09 cdbc
000000d0: 5f6c 2cbe f1c7 70bd 0762 9ebc d5f9 5e3c
000000e0: d16f c43d b86f 0d3d 0f46 463e ee43 2fbe
000000f0: d564 8b3d bf23 76bd c7ab 7abd 850f c1bb
00000100: 7367 82bd 2c2b 47bd a255 f3bc d4d2 573d
00000110: c05b 6c3d f8d4 babd 1129 823d 26c7 44be
00000120: 7575 243e b7be 8f3c f1ad a23d 6c12 0dbd
00000130: 9484 d0be 1d63 ae3d 8dd5 8dbd a7cd a4be
00000140: c47b 22bd 038a 3a3c ae83 3ebc 2b38 d5bd
00000150: 5f8a 5ebe e339 23be 2a1f afbc 6605 e7bc
00000160: 9938 9abe 15c5 6cbe 3f7f e33b 5962 973d
00000170: 401f 6dbe ec2e 033d 465e 063d c4ce 03be
00000180: b8dd 30bc 78d2 9f3d 8bb5 abbd 1c7d 0abe
00000190: 17eb e23c 674a 7bbd ac36 d8bd 60b4 0e3e
000001a0: 19a1 683c b7f6 9bbc 7255 993d 2947 83bd
000001b0: 0e74 81bd 2239 b73b 4439 75bd 3a33 00bd
000001c0: c3a4 bebd 1876 a03d 3f26 48bd b151 a6bd
000001d0: 9fee 173d 2005 86be 18bf 213c 504f 9d3d
000001e0: f3fd e53a 7383 f3bc 7243 3bbe a45a 8dbc
000001f0: 37a8 83bd 0a35 41be 1cf6 053b 250b 7dbd
00000200: 14f3 083c b36a 64be 8710 683e 83e0 313c
00000210: 9071 0abe 806b 3d3e 9290 0f3e 5772 9cbd
00000220: 189a ae3c c00c 3d3c a04f fcbc 5a26 2cbe
00000230: 41ed 18be 1c33 223e 9435 a83c 8952 d53c
00000240: 3f7e f83d c511 413e 5e78 6abe 1d85 eb3d
00000250: ac60 0f3e 67f5 61bd d82a 873d 8b09 6e3d
00000260: 79cd b33d f674 a3be 52e7 8d3b 606a b83d
00000270: 025d b3bd cfe7 5c3d cea0 973d ce2b b53d
00000280: bd90 debd 66e6 5d3d 9393 2d3d 2311 b7bd
00000290: ff0d 4fbe 13ef 2b3c e150 743d 46de e23c
000002a0: 3058 a23c 8e04 743d 0c9f cd3d 25d3 e83c
000002b0: b751 4fbe cf15 b1bd 5f2d 22bd 9ead ad3d
000002c0: 9354 3fbe b51e 4b3e f78f debe 6e51 2abd
000002d0: 9e12 da3d d3d5 9dbd fbd7 bcbc 257a 233d
000002e0: 26de 48be 8b86 6fbc b9d3 1cbe e332 d83c
000002f0: 9273 87bc 401d bfbd 04f2 b4ba f992 12bd
00000300: 7ae9 7e3d e6e6 a5bd cb69 5bbd 5821 7ebe
00000310: e814 27bd 3b66 0b3d 3739 dbbd 8acd 893d
00000320: b740 d03c a1a5 75bd 6523 b6bd f48f 983d
00000330: 4ab8 48be e1cb 9a3e f04b 85bd 731a d5ba
00000340: 4768 68be 68a0 c03c 0608 72bb 070f 71bd
00000350: 98f6 41be c16b 9ebe 4c0f 2ebe 2c9e efbd
00000360: 3f74 36be 2f58 fd3b 20cf d9bd 264d 7fbe
00000370: 9483 b3bd 943f ff3c 6311 893e 3a35 91bd
00000380: c343 82bd d153 203d 4a3b 4d3c 3dd8 113d
00000390: 17f0 2abd 5043 143c ae19 5dbe 5931 1bbd
000003a0: a2fb 0abd 3cb1 9bbb 8ce6 1b3d d2e1 463e
000003b0: 4cff 7fbd b89b 5cbe 7554 a83d 583d 55bd
000003c0: 00b7 a93d 2499 79bc ae44 0fbe d22f 1b3e
000003d0: ab74 8abe d398 fbbd d6a4 aabd 781d 223d
000003e0: 82da 72be 0af1 70be 8524 0a3e 743d 5c3b
000003f0: 4456 81be 945b 2d3d 2301 e1bc b106 c23d
-0.05366318 0.08936006 0.013466611 -0.28080654 0.079140045 0.1430481 -0.16286604 0.013903089
0.22112478 0.13391696 0.06557222 -0.054046117 -0.20427297 0.054144833 -0.13238455 -0.17156184
-0.103020616 -0.31480032 -0.0777166 -0.010189232 -0.25082245 -0.031871364 -0.09765544 -0.07048951
0.06627007 -0.04505628 0.26092926 0.09006423 0.08329315 0.024088407 0.059629217 0.029706016
0.0038733478 0.22346666 -0.0374997 -0.14968522 0.20873733 -0.20007364 0.039946973 0.04211865
-0.078629665 0.118836604 0.099032894 -0.23698345 0.15286988 0.04632828 0.060189076 0.039919626
-0.29319352 -0.06624489 -0.006420258 -0.025028761 -0.16838215 -0.05878443 -0.019333852 0.013609369
0.0959164 0.03453037 0.19362663 -0.17115757 0.068063416 -0.060092684 -0.061198976 -0.0058917427
-0.063673876 -0.048625156 -0.029703919 0.052691296 0.057704687 -0.09122652 0.06355489 -0.19216594
0.16060431 0.017546995 0.07943333 -0.034441397 -0.4072615 0.08514998 -0.06925497 -0.3218815
-0.039668813 0.011385444 -0.011628075 -0.10411104 -0.21732472 -0.15940051 -0.021377165 -0.028200816
-0.30121306 -0.23122056 0.006942659 0.07391805 -0.23156452 0.03202717 0.03280475 -0.12871844
-0.010795049 0.078038156 -0.08384236 -0.13524288 0.02769999 -0.061350252 -0.10557303 0.13935995
0.014198565 -0.019038541 0.074870005 -0.06410057 -0.06320964 0.0055915276 -0.059869066 -0.031298853
-0.093087696 0.078350246 -0.0488646 -0.0812105 0.0370928 -0.26175785 0.00987222 0.07681143
0.0017546996 -0.029725766 -0.18287447 -0.017255135 -0.06428569 -0.18867889 0.0020440882 -0.061778206
0.008358736 -0.22306328 0.22662555 0.01085675 -0.13519883 0.18498039 0.14019993 -0.07638996
0.021313712 0.011538684 -0.030799687 -0.16811505 -0.14934255 0.15839809 0.02053336 0.026040332
0.121334545 0.18854435 -0.22897479 0.11499999 0.14001721 -0.055165675 0.06599969 0.05811457
0.08779425 -0.31925172 0.004330554 0.090046644 -0.08757974 0.053932007 0.07403718 0.08846246
-0.108674504 0.054174803 0.042377066 -0.089388154 -0.20220183 0.010494011 0.059647445 0.027693879
0.019817442 0.059574656 0.100401014 0.028420994 -0.20246015 -0.08646738 -0.03959405 0.084803805
-0.18684606 0.19835933 -0.4346921 -0.041581564 0.10648082 -0.07706799 -0.023052206 0.039911408
-0.19615993 -0.01461948 -0.15315141 0.026391452 -0.0165346 -0.09331751 -0.0013805036 -0.035784695
0.06223438 -0.08100681 -0.05356769 -0.24817407 -0.040791422 0.03403304 -0.10704272 0.067286566
0.025421483 -0.05997241 -0.0889347 0.07449332 -0.1960155 0.30233672 -0.065086246 -0.0016258493
-0.22696029 0.023513988 -0.0036931052 -0.05885222 -0.18941724 -0.30941585 -0.16998023 -0.11700091
-0.17817782 0.0077314596 -0.10635209 -0.24931774 -0.08765331 0.031158246 0.26771078 -0.0709023
-0.06360581 0.039142434 0.012526343 0.03560661 -0.041732874 0.009049252 -0.21591827 -0.03788886
-0.033931382 -0.0047513526 0.038061664 0.19422081 -0.06249933 -0.21543777 0.08219234 -0.052060455
0.082868576 -0.0152342655 -0.13991043 0.15154961 -0.27042136 -0.12285008 -0.08332221 0.039578885
-0.23716167 -0.23529449 0.13490494 0.0033605965 -0.25261128 0.042323664 -0.027466362 0.094739325

fc2.bias f4 [84]
00000000: 0b3c 4cbe 63d3 13bd 0e10 15be 4c02 9d3e
00000010: d512 663e b9d7 73bd 337b a43e 9581 4abd
00000020: 747b ddbd 7802 1bbe 4865 66be 572b 893d
00000030: 1962 893e 2c0a 58bd 6933 193e 1477 cb3c
00000040: fc52 163d 348c 48be abdb 813e 5e4f 0cbe
00000050: 405b 32be 5221 f5bd 5f7f 7f3d dc69 a03b
00000060: c696 d8bd c72d 603d 41e1 39be a1e7 67be
00000070: 41ac 13bd c6d6 893d 0464 61bd 3de0 223e
00000080: 4fa3 aabe a6f7 a13d d7ce ea3c 77b7 8f3d
00000090: 263f a6bd 3527 f33d 340c 13be 4ad2 e83c
000000a0: 1546 98bd 5c19 d0bd 055b 3b3e 451a 083e
000000b0: a7d1 a0be a37b 38be ea18 e83d 53f4 d83b
000000c0: 51de 8a3e e220 52bc b9e0 323c 5f0e 71bd
000000d0: d2f9 a5bd 07cd b2bd b6a0 d8bd a405 d0bd
000000e0: 7a07 933d 45ca 6f3e 5a23 8fbd 09d2 683d
000000f0: 2300 77be 026f aebe 7a44 01be 07d7 96be
00000100: 3c7e acbd 0c45 cbbd 3d78 35be 98ac 1c3e
00000110: dfe7 54bd b5f9 843e f940 12be 96fe 513d
00000120: 269b 02bd 8f49 b5bd 9094 923d cbc4 dd3d
00000130: 3e51 a4bd cc6c 8abe f9de dbbd 7538 efbc
00000140: c087 52be 992d 08be 0a8f 3fbe 58f5 72bd
-0.1994478 -0.036090266 -0.14556906 0.30665815 0.22468121 -0.0595319 0.32125244 -0.049439985
-0.108145624 -0.1513766 -0.22499573 0.066977195 0.26832655 -0.052744076 0.14961018 0.024837054
0.036700234 -0.19584733 0.25362906 -0.13702151 -0.17417622 -0.11969246 0.06237733 0.004895432
-0.10575633 0.054731157 -0.18152334 -0.22646953 -0.036052946 0.06730418 -0.055027023 0.15905853
-0.3332772 0.07908563 0.028663082 0.07017415 -0.08117513 0.118727125 -0.14360124 0.028420586
-0.07435242 -0.10161087 0.1829644 0.13291271 -0.31409952 -0.18015914 0.11332877 0.0066209226
0.2712274 -0.012825223 0.010917836 -0.058851596 -0.0810429 -0.08730512 -0.10577528 -0.10157326
0.071791604 0.23417003 -0.06989165 0.05684093 -0.24121146 -0.34069067 -0.12623778 -0.29460928
-0.08422515 -0.09925279 -0.17721649 0.15300214 -0.051978942 0.2597176 -0.14282598 0.051268183
-0.031886242 -0.08851921 0.07157242 0.10828551 -0.08023308 -0.2703613 -0.10735888 -0.029201725
-0.20559597 -0.13298644 -0.18706909 -0.05931601

fc3.weight f4 [10, 84]
00000000: 6a8f dfbe 2235 53be 98ed 423c cba9 8cbd
00000010: da98 b0bd cab2 60be b45f b0bd 1fa3 bcbe
00000020: 1201 313e 3c0f 23be 757f d1be 73c8 b2bd
00000030: f601 e4be 8f42 5ebf a010 edbd b1f6 183e
00000040: 3ede ca3d b750 c3bc f745 bbbd 4b50 e03d
00000050: 5cbd 33bd 28e1 6abe 6a84 7c3e 67dc 3f3e
00000060: 60b7 933d d10c babe ad5a ac3d 2cbb 97be
00000070: f32a 55ba fdfc 9bbd 2c58 f7be 9007 acbd
00000080: 3bc8 4abf 3fca 0bbe c6aa d0be c99a 80be
00000090: 1ab8 3b3e 4c18 6ebe cefa e53d 61e6 a0be
000000a0: 232c 173e 69ae dabe 40a0 dabe fc60 113e
000000b0: 0aa7 733c 5ddf bebe 8091 a0be 9e50 ef3d
000000c0: 44af cabd 6f12 06be e0be 553d dedb afbd
000000d0: 0503 3c3e e1e5 19be 8398 c8bd bb07 2e3e
000000e0: 1ed6 f0be 3a76 6dbe e271 1f3e c683 d5be
000000f0: 928a c6bc 78c9 59bd fa92 543e a1df 2a3e
00000100: b6f8 7a3d b746 4ebe 98d0 adbc b6e7 b1be
00000110: b358 81bb 14b3 86be 067d 20be e2d4 1abf
00000120: 46e1 85bd e936 8bbe 823b c33c e81c 583d
00000130: 4454 fe3c 8814 82be 9b5f b83d 8a28 173e
00000140: 4f67 8dbe 7058 91bd ecd1 053d be41 4a3e
00000150: ff99 bbbd 260e 43be eca9 0abd 8a13 23be
00000160: a5f8 7fbe 416e 913d 0436 003d f053 0cbe
00000170: 27ea 1fbf ad4d 0cbc 0375 a1bb 2d23 823d
00000180: 7d01 01bc e6c5 21be f44a de3d 4543 183e
00000190: e42d c639 d0ab 0a3e 1fbf d3bd ba11 ecbe
000001a0: 80cc 11be 4f30 efbe 8b29 acbd d522 a5be
000001b0: e6dc 49be 0292 93bc 5595 433d 6837 8fbc
000001c0: e889 99bc c69c 0ebd a9ab d3bd 34ed 72be
000001d0: b3ce 113e 88b1 9abd 3ecc 0c3e 4fca 6bbd
000001e0: 632f b73a 58c1 27bc 2598 a2bd 032a 05bd
000001f0: ea91 a4bd 07c1 d0bd 84ad 7bbe 7dbc 6a3d
00000200: e7fa b83d 63ee d7be e768 25bd cd6d 14be
00000210: 862f 90be 24c8 14bf dbec d53d 0d95 a8bd
00000220: 6327 b1be 09fa 7fbe 44e8 e7be 80fe 90be
00000230: 50a7 363d ad34 aebe d3c4 f53d 1774 15be
00000240: e2e5 45bf 2e5e f43d dd50 963d cbf9 f9be
00000250: 7531 0dbf 0757 fabc 98d7 813d bd5b 673d
00000260: ba31 1cbe 3541 573d 6fa8 bc3d 1829 9b3d
00000270: b2d5 d0b9 3007 7fbe a5a2 78be 3d56 0abf
00000280: 6bf8 073e bae2 95bd cbac 00be 575b 9bbe
00000290: 7b89 353e 2bfa dfbd 1b6d 92be d332 43be
000002a0: 2d9b 8ebd b7e4 54bc 7265 8fbe 1526 4ebe
000002b0: a63e 9b3d 8b64 aebe 2ceb 55be c0b4 463d
000002c0: c045 babe e15a 423d 418f 02bf 41e1 78bd
000002d0: d84f 3d3e e81d aabe ea0e 4fbe 5879 07be
000002e0: c87f 6f3d f954 543d 3d1b c9be 7a2c 21be
000002f0: 2feb 333d f8c7 6d3c cd2b d8bc 1fcf 01bf
00000300: 04ee 99be 4706 31be be0b 593e 561e 26be
00000310: 959c 003e 6488 fe3c 26df 90be 986a 06bf
00000320: e204 d5be 2a4b 2c3e 280d 403e fb86 22bd
00000330: 202d 003e cb30 9cba a205 3b3e f8fb 17be
00000340: bdd9 a73d 775a 773d d76e 5a3d 7fd8 283e
00000350: a008 76bd 777f 65be e4eb 07be 4d73 7d3d
00000360: 48b1 373e 400a 9ebe 37e9 debe b930 cabd
00000370: 4c65 b3bc 4189 12bf 6da4 d6be ec66 61be
00000380: 2844 94bd 6d31 93bd 9765 59bd 6b09 ae3d
00000390: ade0 c4be b1fd 933d 1099 5abe 659a 8dbe
000003a0: fbc6 a73d d974 83bd 4c78 56be fa13 1a3e
000003b0: bd4a 1dbc 8a21 debe dcf7 88be 6fe6 c2be
000003c0: 13f4 01bb 93c3 29bd 69d5 0d3e 7687 1bbc
000003d0: f0b9 45bb 17a7 4dbe d8d0 2f3e 4af4 62be
000003e0: fe0c 483e 59f2 dfbd 4818 98bd 1ce8 da3c
000003f0: 6b8e cbbe 54b6 04be 470a 44bd 58f5 0d3e
-0.43664104 -0.20625737 0.011897467 -0.06868323 -0.08622904 -0.21943203 -0.08612004 -0.36843202
0.17285565 -0.1592378 -0.40917554 -0.08729639 -0.44532746 -0.8682031 -0.115754366 0.14937855
0.099056706 -0.023842199 -0.09144204 0.10952815 -0.04388176 -0.22937453 0.24659887 0.1873642
0.072127104 -0.36337903 0.084157325 -0.29634988 -0.0008131705 -0.07616613 -0.48309457 -0.0839988
-0.7921178 -0.1365137 -0.4075529 -0.25118092 0.18331948 -0.23251456 0.11229478 -0.31425765
0.1476293 -0.4271119 -0.42700386 0.14197153 0.014871368 -0.37279788 -0.31361008 0.116852984
-0.098967105 -0.1309297 0.052183986 -0.08586858 0.18360527 -0.15029098 -0.09794714 0.16995136
-0.47038358 -0.23189631 0.15570787 -0.41702098 -0.024235997 -0.05317065 0.20759192 0.1668687
0.061272345 -0.20144163 -0.02121763 -0.34747094 -0.0039473413 -0.263085 -0.15672693 -0.60481083
-0.06537108 -0.2719033 0.023832086 0.052761942 0.03104604 -0.2540629 0.0900261 0.14761558
-0.2761788 -0.07096946 0.0326709 0.19751641 -0.09160232 -0.19048366 -0.033853456 -0.15925422
-0.24997194 0.071011074 0.031301513 -0.13703895 -0.62466663 -0.008563441 -0.004927279 0.063543655
-0.00787389 -0.15798149 0.1085414 0.14869411 0.00037799694 0.13542104 -0.10339188 -0.46107274
-0.14238167 -0.46716544 -0.08406361 -0.32253137 -0.19713172 -0.018013958 0.047749836 -0.017482474
-0.018742517 -0.03481748 -0.10335476 -0.23723298 0.14239006 -0.07553393 0.13749787 -0.057565983
0.0013975914 -0.010238968 -0.079391755 -0.03251077 -0.080356434 -0.10193067 -0.2457791 0.057308663
0.09032231 -0.42174062 -0.040383246 -0.1449501 -0.28161258 -0.5811789 0.10445567 -0.08231554
-0.34600362 -0.24997725 -0.45294392 -0.28319168 0.044593155 -0.34024563 0.12000432 -0.14595066
-0.773039 0.11932026 0.07339642 -0.4882339 -0.5515359 -0.030559076 0.06339949 0.056483973
-0.15253344 0.05255242 0.09211814 0.075761974 -0.00039832067 -0.24905086 -0.24280794 -0.5403784
0.13278358 -0.07318635 -0.12565915 -0.30343124 0.17728226 -0.10936388 -0.28598866 -0.19062357
-0.06963191 -0.012993983 -0.28007084 -0.20131715 0.075803086 -0.34061083 -0.20890492 0.04851222
-0.3638134 0.04744995 -0.5099984 -0.060761694 0.18487489 -0.33225942 -0.20220533 -0.13229883
0.05847147 0.05183885 -0.39278594 -0.15739623 0.04392546 0.014513008 -0.026388073 -0.50706667
-0.30064404 -0.17287551 0.21195886 -0.1622251 0.12559731 0.031070895 -0.2829525 -0.525064
-0.41605288 0.16825548 0.18755019 -0.03967951 0.12517214 -0.0011916397 0.18263867 -0.14842212
0.08195827 0.06038901 0.05332836 0.16488837 -0.06006682 -0.22411905 -0.13273579 0.061877538
0.17938721 -0.30867195 -0.43537304 -0.09872574 -0.021898888 -0.5724068 -0.41922322 -0.22011918
-0.07239562 -0.071871616 -0.0530754 0.0849789 -0.38452664 0.07226122 -0.21347451 -0.27656856
0.081922494 -0.06418771 -0.20944327 0.15046683 -0.0096003385 -0.43384963 -0.26751602 -0.38066432
-0.0019829317 -0.04144628 0.13850941 -0.009492746 -0.0030170642 -0.20083271 0.17169511 -0.22163501
0.19536206 -0.10934896 -0.07426506 0.026722006 -0.39757094 -0.12960178 -0.047861364 0.13863122

fc3.bias f4 [10]
00000000: 6310 5f3c d61e 08be 8303 31bd 81e8 9cbc
00000010: 35f9 11bd 6d82 ff3d 34b4 21be 636e 68be
00000020: dcb2 963e 50b1 5ebc
0.013614747 -0.13293013 -0.04321624 -0.019153835 -0.035638053 0.124760486 -0.15791398 -0.22698359
0.29433334 -0.013592079

de_convt1.weight f4 [16, 8, 7, 7]
00000000: f7b4 05bf 219d 063f 7db0 4a3f f231 cd3f
00000010: 5fbb a63e 998d 303f da1c 353f 3bee 1c3b
00000020: a2f2 353f 0e68 f63e f56e 91bd 95ed 7c3f
00000030: 697f a7bf f04a bbbe 8c64 a23f 241b d3be
00000040: a059 dfbe d1b9 803f e3fe 78bd 32ab 9d3e
00000050: 76bf 5cbe 131f c2be f7f0 26be 2310 aabf
00000060: 1f72 e33e 158a 7ebf eec5 903f 15bf dd3e
00000070: aa5d 89bf 5ad0 92bf b2eb 2abf 324e d73d
00000080: 06ad 51bf c723 2c3e 6a84 0e3f 8bc3 283e
00000090: 5220 843f 4ca8 1bbf ded2 c2be 786b 26bd
000000a0: 4873 fdbe e3ab ddbe 7d49 e43e 77a9 d9be
000000b0: 0a4b 1ebe 4753 0e3f f8cb 2ebf 75ce c23e
000000c0: 8fa3 1e3e a6d8 a4bd 159a c9b9 4e62 ae3e
000000d0: 4c62 59bd 8494 8fbc e677 dbbe 79c0 72bd
000000e0: a8d3 79be f80a 87bd 036e 95bb fa36 89bf
000000f0: f667 0b3e 0d3f e5bc 77fd 7bbd e7cf 673e
00000100: 504b c13e b907 1f3e 54d5 093e b88e 87bd
00000110: 9267 403f 36f0 5fbc fe64 8dbd 8da2 19bd
00000120: b83c 34bd aea2 d5ba 1195 8fbf 13f6 3abe
00000130: 5f51 043f 5056 b23e 792d 9dbc 3cd8 2e3f
00000140: a062 cfbc 81a9 843e 7c95 55bd 9067 20be
00000150: ca20 3bbe 63e1 17bf 88b0 3bbf 6485 c83e
00000160: b46e 5cbe ff2e f3bc eb8f f0be 318e 71bc
00000170: bb24 4b3b caee 8cbc b629 aebe 563e 20bf
00000180: f95f d3bc a206 04bd 7637 dabc f949 1d3f
00000190: 6f94 293e 25bf fdbe df28 07bd 9f9a 1e3f
000001a0: 752c 5ebd e617 28bd 8b1b 5fbd 180a 80bf
000001b0: c606 74bd 6b65 2cbb a3b2 0cbf 4e76 6fbc
000001c0: 7063 b4bb f926 d93e 1d85 3dbf 3488 14bd
000001d0: cb6c 47bc 4fa4 703e b853 eb3d e676 173f
000001e0: 995f 943f bd43 81bc 764f 923f a56e ce3c
000001f0: ca30 8ebe 1450 ebb9 866e abbf 5056 d23e
00000200: 4006 4c3f eb06 92bc 930e 6c3e 10b6 b6bd
00000210: 8781 fd3b b26a 15bd 4956 91bc e0c3 fbbc
00000220: 9e30 94be a99a 0a3c e5c9 853e 53de 43bd
00000230: 0c51 4bbd a0bb babc 77c8 11bf 3f5a 603f
00000240: 3869 60bd 06ea f03e 56b5 11bf 978d 54bd
00000250: 435b 4dbd 5e27 a7be a51c 2bbd 6c57 58bd
00000260: 070f 60be e09a 353c b65c 69bc ce92 86bc
00000270: eddd 5ebd 9880 bcbb fb99 50bd d3e9 513f
00000280: 28e5 993c f86a 803e f0ab 80bc 24d3 9ebd
00000290: 33e9 fcbc da67 43bf 87d5 883e 377f 3cbb
000002a0: 46ee b43c ace1 95bc 8b77 6abc dad9 25bd
000002b0: 053b aebb 052d 66bd 6b5c 0b3c 744f 94bd
000002c0: fa44 8cbf 81f0 e23e 704a 973e 4c36 213f
000002d0: 7110 75bf e7c3 b23b 6f24 273c 481a 14be
000002e0: 7619 9cbd 19cb d1bc d302 b83e 66e2 04bd
000002f0: 51dd 223f a41c 47bd 533b 973e 426b 063f
00000300: b4da ec3e 0291 5cbd 0624 2bbd f807 44bc
00000310: 2bd1 903f cd42 153e 349c 153f 775f 10bf
00000320: 109f f8be 18e0 a3be 5d3f 4b3f b188 223f
00000330: fc54 99be 3072 3d3f ba41 733e 4918 81bf
00000340: 7b7e 7d3f 5035 d13e 9e69 adbd eb99 2abe
00000350: cf16 d33e 3fe4 48be bfd1 053e fef9 3abe
00000360: 4af8 f13c 59ef 9bbf fb9f ce3e a54a 493d
00000370: d4fb abbf 2ce8 7dbe 8675 85be 88f4 01bf
00000380: 82ef 5abe 3b93 053e 3e08 ef3e ed20 ea3d
00000390: ef2b 333d 9140 093e 1bd0 cb3e 96cb 08be
000003a0: c367 d03e 92e5 8abe bfe7 48bf 9487 4c3f
000003b0: 63d6 173f a005 0c3f 1538 01be f915 2abe
000003c0: c14f ba3e fafb 53bf 5d51 6abf f82c 9c3e
000003d0: bc9e 0cbe e183 983f ab7e 8f3c d346 463e
000003e0: 8ed6 21bf 87b9 60be 9e8d b63f 37fe 98be
000003f0: cea6 7a3f 4c6b 303f c6d0 77bf 7908 19bf
-0.52229255 0.5258351 0.7917555 1.6030867 0.32564828 0.6896606 0.7074715 0.0023945707
0.71073353 0.48126262 -0.071012415 0.9880002 -1.3085757 -0.3658061 1.2686934 -0.41231644
-0.43623066 1.0056707 -0.060789954 0.30794674 -0.21557412 -0.37914333 -0.16302858 -1.3286175
0.44423005 -0.99429446 1.1310403 0.43309847 -1.0731709 -1.1469834 -0.6676589 0.105129614
-0.8190464 0.16810523 0.556708 0.16480844 1.0322363 -0.60803676 -0.38051504 -0.040629834
-0.49502015 -0.43295202 0.44587317 -0.42512104 -0.15458313 0.5559582 -0.6827998 0.3804814
0.1549208 -0.08049135 -0.00038452508 0.34059376 -0.05307226 -0.017526872 -0.42864913 -0.059265587
-0.24397147 -0.06593889 -0.0045602336 -1.0719903 0.13613877 -0.027984167 -0.06152102 0.22637902
0.3775277 0.1553029 0.13460284 -0.06619018 0.75158036 -0.013668111 -0.06904028 -0.037508536
-0.04400322 -0.0016299093 -1.1217366 -0.18257932 0.5168666 0.34831476 -0.019186722 0.682987
-0.025315583 0.2591057 -0.052144513 -0.15664506 -0.18274227 -0.5932829 -0.7331624 0.3916427
-0.21526605 -0.029685495 -0.469848 -0.014743374 0.0030997235 -0.017203707 -0.34016198 -0.6259512
-0.0258026 -0.032232888 -0.026637774 0.61441 0.16560529 -0.49559894 -0.032997962 0.61954683
-0.054241616 -0.041038416 -0.054469626 -1.000308 -0.059576772 -0.0026305567 -0.5496008 -0.014615608
-0.005505018 0.42412546 -0.7403124 -0.036262706 -0.012171934 0.23500179 0.114905775 0.591658
1.1591674 -0.01577937 1.14305 0.025199244 -0.27771598 -0.00044882356 -1.3393104 0.41081476
0.79697037 -0.017825564 0.23052435 -0.089214444 0.007736388 -0.036478706 -0.01774134 -0.030733049
-0.28943342 0.008459725 0.26130596 -0.047819447 -0.04963784 -0.022794545 -0.5694651 0.87637705
-0.054787844 0.47053546 -0.5691732 -0.051892843 -0.050135862 -0.32647222 -0.041775364 -0.052817747
-0.21880732 0.011084288 -0.014243295 -0.016427424 -0.054410864 -0.0057526343 -0.050928097 0.8199741
0.018786028 0.2508161 -0.015706986 -0.07755116 -0.030872917 -0.7633034 0.26725408 -0.002876235
0.022086274 -0.018296085 -0.014310728 -0.040490963 -0.0053170943 -0.056195278 0.008505921 -0.07241717
-1.095855 0.44324115 0.2954898 0.62973475 -0.9572821 0.0054554823 0.010201558 -0.1446315
-0.07622044 -0.02560954 0.35939655 -0.032442473 0.6361895 -0.0486113 0.29537448 0.5250741
0.46260607 -0.053849228 -0.0417824 -0.0119647905 1.1313833 0.14576264 0.5844147 -0.5639567
-0.48558855 -0.32006907 0.7939356 0.63489825 -0.2994765 0.7400236 0.23755541 -1.0085536
0.9902112 0.40860987 -0.084674105 -0.16660278 0.4122834 -0.19618319 0.13068293 -0.18259427
0.029537339 -1.2182418 0.4035643 0.049143452 -1.3436227 -0.24795598 -0.26066226 -0.5076375
-0.21380427 0.13044445 0.46685976 0.11432061 0.04374307 0.13403536 0.3980721 -0.13358912
0.40704164 -0.27128273 -0.78478616 0.79894376 0.59311503 0.54696083 -0.1261905 -0.16609944
0.36388972 -0.8280636 -0.915304 0.30503058 -0.13732427 1.1915246 0.017516455 0.19362955
-0.6321801 -0.21945773 1.4261968 -0.2988145 0.97910774 0.6891372 -0.9680294 -0.59778553

de_convt1.bias f4 [8]
00000000: 3145 ff3d d6ce b5bd 53f0 9abe 4ea5 27be
00000010: f04a 493d d8f2 0a3e c6cc 0cbf 2da2 6a3e
0.12464369 -0.088773414 -0.30261478 -0.16371652 0.04914373 0.135692 -0.5499996 0.22913428

de_convt2.weight f4 [8, 4, 1, 1]
00000000: 60db 0fbf 12d8 36bf 2ac7 52bf 7914 41bf
00000010: 7042 a7be dd9a 6b3f 3c0c e9be d7a0 5cbd
00000020: 9e3a 81bf 3a55 febe 40c4 93bf 7ff4 91bf
00000030: 106b 33bf 5528 4a3f 5d90 40be 70b1 22be
00000040: e380 bcbe 89ed 583f 3d5d 07bf 439d a6be
00000050: 47c8 1d3f ce54 cfbe 2301 003f 8904 833f
00000060: 3d1c 203f ab32 6cbf 42fb 5a3f 50aa 863f
00000070: b8f6 0d3f 33db 7fbe 2f98 3c3f 42b0 5f3f
-0.56194115 -0.7142345 -0.8233515 -0.75421864 -0.32667875 0.9203318 -0.45517147 -0.053864326
-1.0096014 -0.49674398 -1.1544266 -1.1402739 -0.7008524 0.7896779 -0.1880507 -0.15888
-0.36817083 0.8473745 -0.52876645 -0.32541856 0.61633724 -0.40494388 0.50001734 1.0235759
0.6254309 -0.92264813 0.8553964 1.0520725 0.5545459 -0.24985962 0.73669714 0.87378323

de_convt2.bias f4 [4]
00000000: 4c16 f43e e532 1f3e bfdf df3e 1dae f33c
0.4767326 0.15546758 0.43725392 0.02974611

out.weight f4 [1, 4, 4, 4]
00000000: 2513 0ebe a38a 77be b52d b7be daad 7bbe
00000010: 59ed 7abe 72a9 08bf d5cf 1ebf cfd2 e7be
00000020: ee6b 42be 6f4c a6be b559 cbbe 2b1b 94be
00000030: 13aa 11be 8d21 85be d38f 8bbe 1138 47be
00000040: 4790 703e 7820 bd3e 366e c13e 935f 863e
00000050: 84a8 c33e d1b3 1a3f 9f93 123f a4da d73e
00000060: a0d1 cd3e 4114 1e3f 7968 163f d0d2 d53e
00000070: b8fc 993e f2c8 e03e d118 e33e 6098 a23e
00000080: 2997 acbe 6232 afbe c385 5ebe 363d 1dbe
00000090: 080c cebe 5bb5 81be 9d75 46be 0b9f a2bd
000000a0: 9b91 00bf 9d61 efbe 75bd e6be 3f64 44be
000000b0: 7b7a 82be 30b8 39be bef2 25be f0aa 4f3a
000000c0: 4649 5bbe 4675 05bf 1442 1abf b366 dcbe
000000d0: 34a2 bcbe cae5 41bf bbae 4bbf 0556 09bf
000000e0: c9a6 b2be f5c9 3dbf b827 38bf 3699 01bf
000000f0: 5a78 cbbe 1ddc 2ebf 2d00 24bf 6e38 e4be
-0.1387449 -0.2417398 -0.3577706 -0.24578038 -0.24504603 -0.53383553 -0.62035877 -0.45278022
-0.18986484 -0.3248019 -0.3971688 -0.28926978 -0.14225034 -0.2600216 -0.27258167 -0.19454981
0.23492537 0.36938834 0.37779397 0.26244792 0.38214505 0.6043063 0.572565 0.42158997
0.40198994 0.61749655 0.5875316 0.417624 0.30075622 0.4390331 0.4435487 0.31756878
-0.33709076 -0.34218127 -0.21730714 -0.15355381 -0.40243554 -0.25333676 -0.19380803 -0.07940491
-0.50222176 -0.4675416 -0.4506642 -0.19178866 -0.2548407 -0.18136668 -0.1620588 0.0007921895
-0.2141467 -0.5213207 -0.6025708 -0.43047103 -0.368425 -0.75741255 -0.7956349 -0.5364688
-0.34892872 -0.74136287 -0.71935606 -0.50624406 -0.39740258 -0.68304616 -0.6406277 -0.44574302
